{"class_name": "Functional", "config": {"name": "model_5", "layers": [{"class_name": "InputLayer", "config": {"batch_input_shape": [null, 256, 256, 3], "dtype": "float32", "sparse": false, "ragged": false, "name": "input_14"}, "name": "input_14", "inbound_nodes": []}, {"class_name": "Functional", "config": {"name": "model_4", "layers": [{"class_name": "InputLayer", "config": {"batch_input_shape": [null, 256, 256, 3], "dtype": "float32", "sparse": false, "ragged": false, "name": "input_13"}, "name": "input_13", "inbound_nodes": []}, {"class_name": "Conv2D", "config": {"name": "Conv1", "trainable": true, "dtype": "float32", "filters": 32, "kernel_size": [3, 3], "strides": [2, 2], "padding": "same", "data_format": "channels_last", "dilation_rate": [1, 1], "groups": 1, "activation": "linear", "use_bias": false, "kernel_initializer": {"class_name": "GlorotUniform", "config": {"seed": null}}, "bias_initializer": {"class_name": "Zeros", "config": {}}, "kernel_regularizer": null, "bias_regularizer": null, "activity_regularizer": null, "kernel_constraint": null, "bias_constraint": null}, "name": "Conv1", "inbound_nodes": [[["input_13", 0, 0, {}]]]}, {"class_name": "BatchNormalization", "config": {"name": "bn_Conv1", "trainable": true, "dtype": "float32", "axis": [3], "momentum": 0.999, "epsilon": 0.001, "center": true, "scale": true, "beta_initializer": {"class_name": "Zeros", "config": {}}, "gamma_initializer": {"class_name": "Ones", "config": {}}, "moving_mean_initializer": {"class_name": "Zeros", "config": {}}, "moving_variance_initializer": {"class_name": "Ones", "config": {}}, "beta_regularizer": null, "gamma_regularizer": null, "beta_constraint": null, "gamma_constraint": null}, "name": "bn_Conv1", "inbound_nodes": [[["Conv1", 0, 0, {}]]]}, {"class_name": "ReLU", "config": {"name": "Conv1_relu", "trainable": true, "dtype": "float32", "max_value": 6.0, "negative_slope": 0.0, "threshold": 0.0}, "name": "Conv1_relu", "inbound_nodes": [[["bn_Conv1", 0, 0, {}]]]}, {"class_name": "DepthwiseConv2D", "config": {"name": "expanded_conv_depthwise", "trainable": true, "dtype": "float32", "kernel_size": [3, 3], "strides": [1, 1], "padding": "same", "data_format": "channels_last", "dilation_rate": [1, 1], "groups": 1, "activation": "linear", "use_bias": false, "bias_initializer": {"class_name": "Zeros", "config": {}}, "bias_regularizer": null, "activity_regularizer": null, "bias_constraint": null, "depth_multiplier": 1, "depthwise_initializer": {"class_name": "GlorotUniform", "config": {"seed": null}}, "depthwise_regularizer": null, "depthwise_constraint": null}, "name": "expanded_conv_depthwise", "inbound_nodes": [[["Conv1_relu", 0, 0, {}]]]}, {"class_name": "BatchNormalization", "config": {"name": "expanded_conv_depthwise_BN", "trainable": true, "dtype": "float32", "axis": [3], "momentum": 0.999, "epsilon": 0.001, "center": true, "scale": true, "beta_initializer": {"class_name": "Zeros", "config": {}}, "gamma_initializer": {"class_name": "Ones", "config": {}}, "moving_mean_initializer": {"class_name": "Zeros", "config": {}}, "moving_variance_initializer": {"class_name": "Ones", "config": {}}, "beta_regularizer": null, "gamma_regularizer": null, "beta_constraint": null, "gamma_constraint": null}, "name": "expanded_conv_depthwise_BN", "inbound_nodes": [[["expanded_conv_depthwise", 0, 0, {}]]]}, {"class_name": "ReLU", "config": {"name": "expanded_conv_depthwise_relu", "trainable": true, "dtype": "float32", "max_value": 6.0, "negative_slope": 0.0, "threshold": 0.0}, "name": "expanded_conv_depthwise_relu", "inbound_nodes": [[["expanded_conv_depthwise_BN", 0, 0, {}]]]}, {"class_name": "Conv2D", "config": {"name": "expanded_conv_project", "trainable": true, "dtype": "float32", "filters": 16, "kernel_size": [1, 1], "strides": [1, 1], "padding": "same", "data_format": "channels_last", "dilation_rate": [1, 1], "groups": 1, "activation": "linear", "use_bias": false, "kernel_initializer": {"class_name": "GlorotUniform", "config": {"seed": null}}, "bias_initializer": {"class_name": "Zeros", "config": {}}, "kernel_regularizer": null, "bias_regularizer": null, "activity_regularizer": null, "kernel_constraint": null, "bias_constraint": null}, "name": "expanded_conv_project", "inbound_nodes": [[["expanded_conv_depthwise_relu", 0, 0, {}]]]}, {"class_name": "BatchNormalization", "config": {"name": "expanded_conv_project_BN", "trainable": true, "dtype": "float32", "axis": [3], "momentum": 0.999, "epsilon": 0.001, "center": true, "scale": true, "beta_initializer": {"class_name": "Zeros", "config": {}}, "gamma_initializer": {"class_name": "Ones", "config": {}}, "moving_mean_initializer": {"class_name": "Zeros", "config": {}}, "moving_variance_initializer": {"class_name": "Ones", "config": {}}, "beta_regularizer": null, "gamma_regularizer": null, "beta_constraint": null, "gamma_constraint": null}, "name": "expanded_conv_project_BN", "inbound_nodes": [[["expanded_conv_project", 0, 0, {}]]]}, {"class_name": "Conv2D", "config": {"name": "block_1_expand", "trainable": true, "dtype": "float32", "filters": 96, "kernel_size": [1, 1], "strides": [1, 1], "padding": "same", "data_format": "channels_last", "dilation_rate": [1, 1], "groups": 1, "activation": "linear", "use_bias": false, "kernel_initializer": {"class_name": "GlorotUniform", "config": {"seed": null}}, "bias_initializer": {"class_name": "Zeros", "config": {}}, "kernel_regularizer": null, "bias_regularizer": null, "activity_regularizer": null, "kernel_constraint": null, "bias_constraint": null}, "name": "block_1_expand", "inbound_nodes": [[["expanded_conv_project_BN", 0, 0, {}]]]}, {"class_name": "BatchNormalization", "config": {"name": "block_1_expand_BN", "trainable": true, "dtype": "float32", "axis": [3], "momentum": 0.999, "epsilon": 0.001, "center": true, "scale": true, "beta_initializer": {"class_name": "Zeros", "config": {}}, "gamma_initializer": {"class_name": "Ones", "config": {}}, "moving_mean_initializer": {"class_name": "Zeros", "config": {}}, "moving_variance_initializer": {"class_name": "Ones", "config": {}}, "beta_regularizer": null, "gamma_regularizer": null, "beta_constraint": null, "gamma_constraint": null}, "name": "block_1_expand_BN", "inbound_nodes": [[["block_1_expand", 0, 0, {}]]]}, {"class_name": "ReLU", "config": {"name": "block_1_expand_relu", "trainable": true, "dtype": "float32", "max_value": 6.0, "negative_slope": 0.0, "threshold": 0.0}, "name": "block_1_expand_relu", "inbound_nodes": [[["block_1_expand_BN", 0, 0, {}]]]}, {"class_name": "ZeroPadding2D", "config": {"name": "block_1_pad", "trainable": true, "dtype": "float32", "padding": [[0, 1], [0, 1]], "data_format": "channels_last"}, "name": "block_1_pad", "inbound_nodes": [[["block_1_expand_relu", 0, 0, {}]]]}, {"class_name": "DepthwiseConv2D", "config": {"name": "block_1_depthwise", "trainable": true, "dtype": "float32", "kernel_size": [3, 3], "strides": [2, 2], "padding": "valid", "data_format": "channels_last", "dilation_rate": [1, 1], "groups": 1, "activation": "linear", "use_bias": false, "bias_initializer": {"class_name": "Zeros", "config": {}}, "bias_regularizer": null, "activity_regularizer": null, "bias_constraint": null, "depth_multiplier": 1, "depthwise_initializer": {"class_name": "GlorotUniform", "config": {"seed": null}}, "depthwise_regularizer": null, "depthwise_constraint": null}, "name": "block_1_depthwise", "inbound_nodes": [[["block_1_pad", 0, 0, {}]]]}, {"class_name": "BatchNormalization", "config": {"name": "block_1_depthwise_BN", "trainable": true, "dtype": "float32", "axis": [3], "momentum": 0.999, "epsilon": 0.001, "center": true, "scale": true, "beta_initializer": {"class_name": "Zeros", "config": {}}, "gamma_initializer": {"class_name": "Ones", "config": {}}, "moving_mean_initializer": {"class_name": "Zeros", "config": {}}, "moving_variance_initializer": {"class_name": "Ones", "config": {}}, "beta_regularizer": null, "gamma_regularizer": null, "beta_constraint": null, "gamma_constraint": null}, "name": "block_1_depthwise_BN", "inbound_nodes": [[["block_1_depthwise", 0, 0, {}]]]}, {"class_name": "ReLU", "config": {"name": "block_1_depthwise_relu", "trainable": true, "dtype": "float32", "max_value": 6.0, "negative_slope": 0.0, "threshold": 0.0}, "name": "block_1_depthwise_relu", "inbound_nodes": [[["block_1_depthwise_BN", 0, 0, {}]]]}, {"class_name": "Conv2D", "config": {"name": "block_1_project", "trainable": true, "dtype": "float32", "filters": 24, "kernel_size": [1, 1], "strides": [1, 1], "padding": "same", "data_format": "channels_last", "dilation_rate": [1, 1], "groups": 1, "activation": "linear", "use_bias": false, "kernel_initializer": {"class_name": "GlorotUniform", "config": {"seed": null}}, "bias_initializer": {"class_name": "Zeros", "config": {}}, "kernel_regularizer": null, "bias_regularizer": null, "activity_regularizer": null, "kernel_constraint": null, "bias_constraint": null}, "name": "block_1_project", "inbound_nodes": [[["block_1_depthwise_relu", 0, 0, {}]]]}, {"class_name": "BatchNormalization", "config": {"name": "block_1_project_BN", "trainable": true, "dtype": "float32", "axis": [3], "momentum": 0.999, "epsilon": 0.001, "center": true, "scale": true, "beta_initializer": {"class_name": "Zeros", "config": {}}, "gamma_initializer": {"class_name": "Ones", "config": {}}, "moving_mean_initializer": {"class_name": "Zeros", "config": {}}, "moving_variance_initializer": {"class_name": "Ones", "config": {}}, "beta_regularizer": null, "gamma_regularizer": null, "beta_constraint": null, "gamma_constraint": null}, "name": "block_1_project_BN", "inbound_nodes": [[["block_1_project", 0, 0, {}]]]}, {"class_name": "Conv2D", "config": {"name": "block_2_expand", "trainable": true, "dtype": "float32", "filters": 144, "kernel_size": [1, 1], "strides": [1, 1], "padding": "same", "data_format": "channels_last", "dilation_rate": [1, 1], "groups": 1, "activation": "linear", "use_bias": false, "kernel_initializer": {"class_name": "GlorotUniform", "config": {"seed": null}}, "bias_initializer": {"class_name": "Zeros", "config": {}}, "kernel_regularizer": null, "bias_regularizer": null, "activity_regularizer": null, "kernel_constraint": null, "bias_constraint": null}, "name": "block_2_expand", "inbound_nodes": [[["block_1_project_BN", 0, 0, {}]]]}, {"class_name": "BatchNormalization", "config": {"name": "block_2_expand_BN", "trainable": true, "dtype": "float32", "axis": [3], "momentum": 0.999, "epsilon": 0.001, "center": true, "scale": true, "beta_initializer": {"class_name": "Zeros", "config": {}}, "gamma_initializer": {"class_name": "Ones", "config": {}}, "moving_mean_initializer": {"class_name": "Zeros", "config": {}}, "moving_variance_initializer": {"class_name": "Ones", "config": {}}, "beta_regularizer": null, "gamma_regularizer": null, "beta_constraint": null, "gamma_constraint": null}, "name": "block_2_expand_BN", "inbound_nodes": [[["block_2_expand", 0, 0, {}]]]}, {"class_name": "ReLU", "config": {"name": "block_2_expand_relu", "trainable": true, "dtype": "float32", "max_value": 6.0, "negative_slope": 0.0, "threshold": 0.0}, "name": "block_2_expand_relu", "inbound_nodes": [[["block_2_expand_BN", 0, 0, {}]]]}, {"class_name": "DepthwiseConv2D", "config": {"name": "block_2_depthwise", "trainable": true, "dtype": "float32", "kernel_size": [3, 3], "strides": [1, 1], "padding": "same", "data_format": "channels_last", "dilation_rate": [1, 1], "groups": 1, "activation": "linear", "use_bias": false, "bias_initializer": {"class_name": "Zeros", "config": {}}, "bias_regularizer": null, "activity_regularizer": null, "bias_constraint": null, "depth_multiplier": 1, "depthwise_initializer": {"class_name": "GlorotUniform", "config": {"seed": null}}, "depthwise_regularizer": null, "depthwise_constraint": null}, "name": "block_2_depthwise", "inbound_nodes": [[["block_2_expand_relu", 0, 0, {}]]]}, {"class_name": "BatchNormalization", "config": {"name": "block_2_depthwise_BN", "trainable": true, "dtype": "float32", "axis": [3], "momentum": 0.999, "epsilon": 0.001, "center": true, "scale": true, "beta_initializer": {"class_name": "Zeros", "config": {}}, "gamma_initializer": {"class_name": "Ones", "config": {}}, "moving_mean_initializer": {"class_name": "Zeros", "config": {}}, "moving_variance_initializer": {"class_name": "Ones", "config": {}}, "beta_regularizer": null, "gamma_regularizer": null, "beta_constraint": null, "gamma_constraint": null}, "name": "block_2_depthwise_BN", "inbound_nodes": [[["block_2_depthwise", 0, 0, {}]]]}, {"class_name": "ReLU", "config": {"name": "block_2_depthwise_relu", "trainable": true, "dtype": "float32", "max_value": 6.0, "negative_slope": 0.0, "threshold": 0.0}, "name": "block_2_depthwise_relu", "inbound_nodes": [[["block_2_depthwise_BN", 0, 0, {}]]]}, {"class_name": "Conv2D", "config": {"name": "block_2_project", "trainable": true, "dtype": "float32", "filters": 24, "kernel_size": [1, 1], "strides": [1, 1], "padding": "same", "data_format": "channels_last", "dilation_rate": [1, 1], "groups": 1, "activation": "linear", "use_bias": false, "kernel_initializer": {"class_name": "GlorotUniform", "config": {"seed": null}}, "bias_initializer": {"class_name": "Zeros", "config": {}}, "kernel_regularizer": null, "bias_regularizer": null, "activity_regularizer": null, "kernel_constraint": null, "bias_constraint": null}, "name": "block_2_project", "inbound_nodes": [[["block_2_depthwise_relu", 0, 0, {}]]]}, {"class_name": "BatchNormalization", "config": {"name": "block_2_project_BN", "trainable": true, "dtype": "float32", "axis": [3], "momentum": 0.999, "epsilon": 0.001, "center": true, "scale": true, "beta_initializer": {"class_name": "Zeros", "config": {}}, "gamma_initializer": {"class_name": "Ones", "config": {}}, "moving_mean_initializer": {"class_name": "Zeros", "config": {}}, "moving_variance_initializer": {"class_name": "Ones", "config": {}}, "beta_regularizer": null, "gamma_regularizer": null, "beta_constraint": null, "gamma_constraint": null}, "name": "block_2_project_BN", "inbound_nodes": [[["block_2_project", 0, 0, {}]]]}, {"class_name": "Add", "config": {"name": "block_2_add", "trainable": true, "dtype": "float32"}, "name": "block_2_add", "inbound_nodes": [[["block_1_project_BN", 0, 0, {}], ["block_2_project_BN", 0, 0, {}]]]}, {"class_name": "Conv2D", "config": {"name": "block_3_expand", "trainable": true, "dtype": "float32", "filters": 144, "kernel_size": [1, 1], "strides": [1, 1], "padding": "same", "data_format": "channels_last", "dilation_rate": [1, 1], "groups": 1, "activation": "linear", "use_bias": false, "kernel_initializer": {"class_name": "GlorotUniform", "config": {"seed": null}}, "bias_initializer": {"class_name": "Zeros", "config": {}}, "kernel_regularizer": null, "bias_regularizer": null, "activity_regularizer": null, "kernel_constraint": null, "bias_constraint": null}, "name": "block_3_expand", "inbound_nodes": [[["block_2_add", 0, 0, {}]]]}, {"class_name": "BatchNormalization", "config": {"name": "block_3_expand_BN", "trainable": true, "dtype": "float32", "axis": [3], "momentum": 0.999, "epsilon": 0.001, "center": true, "scale": true, "beta_initializer": {"class_name": "Zeros", "config": {}}, "gamma_initializer": {"class_name": "Ones", "config": {}}, "moving_mean_initializer": {"class_name": "Zeros", "config": {}}, "moving_variance_initializer": {"class_name": "Ones", "config": {}}, "beta_regularizer": null, "gamma_regularizer": null, "beta_constraint": null, "gamma_constraint": null}, "name": "block_3_expand_BN", "inbound_nodes": [[["block_3_expand", 0, 0, {}]]]}, {"class_name": "ReLU", "config": {"name": "block_3_expand_relu", "trainable": true, "dtype": "float32", "max_value": 6.0, "negative_slope": 0.0, "threshold": 0.0}, "name": "block_3_expand_relu", "inbound_nodes": [[["block_3_expand_BN", 0, 0, {}]]]}, {"class_name": "ZeroPadding2D", "config": {"name": "block_3_pad", "trainable": true, "dtype": "float32", "padding": [[0, 1], [0, 1]], "data_format": "channels_last"}, "name": "block_3_pad", "inbound_nodes": [[["block_3_expand_relu", 0, 0, {}]]]}, {"class_name": "DepthwiseConv2D", "config": {"name": "block_3_depthwise", "trainable": true, "dtype": "float32", "kernel_size": [3, 3], "strides": [2, 2], "padding": "valid", "data_format": "channels_last", "dilation_rate": [1, 1], "groups": 1, "activation": "linear", "use_bias": false, "bias_initializer": {"class_name": "Zeros", "config": {}}, "bias_regularizer": null, "activity_regularizer": null, "bias_constraint": null, "depth_multiplier": 1, "depthwise_initializer": {"class_name": "GlorotUniform", "config": {"seed": null}}, "depthwise_regularizer": null, "depthwise_constraint": null}, "name": "block_3_depthwise", "inbound_nodes": [[["block_3_pad", 0, 0, {}]]]}, {"class_name": "BatchNormalization", "config": {"name": "block_3_depthwise_BN", "trainable": true, "dtype": "float32", "axis": [3], "momentum": 0.999, "epsilon": 0.001, "center": true, "scale": true, "beta_initializer": {"class_name": "Zeros", "config": {}}, "gamma_initializer": {"class_name": "Ones", "config": {}}, "moving_mean_initializer": {"class_name": "Zeros", "config": {}}, "moving_variance_initializer": {"class_name": "Ones", "config": {}}, "beta_regularizer": null, "gamma_regularizer": null, "beta_constraint": null, "gamma_constraint": null}, "name": "block_3_depthwise_BN", "inbound_nodes": [[["block_3_depthwise", 0, 0, {}]]]}, {"class_name": "ReLU", "config": {"name": "block_3_depthwise_relu", "trainable": true, "dtype": "float32", "max_value": 6.0, "negative_slope": 0.0, "threshold": 0.0}, "name": "block_3_depthwise_relu", "inbound_nodes": [[["block_3_depthwise_BN", 0, 0, {}]]]}, {"class_name": "Conv2D", "config": {"name": "block_3_project", "trainable": true, "dtype": "float32", "filters": 32, "kernel_size": [1, 1], "strides": [1, 1], "padding": "same", "data_format": "channels_last", "dilation_rate": [1, 1], "groups": 1, "activation": "linear", "use_bias": false, "kernel_initializer": {"class_name": "GlorotUniform", "config": {"seed": null}}, "bias_initializer": {"class_name": "Zeros", "config": {}}, "kernel_regularizer": null, "bias_regularizer": null, "activity_regularizer": null, "kernel_constraint": null, "bias_constraint": null}, "name": "block_3_project", "inbound_nodes": [[["block_3_depthwise_relu", 0, 0, {}]]]}, {"class_name": "BatchNormalization", "config": {"name": "block_3_project_BN", "trainable": true, "dtype": "float32", "axis": [3], "momentum": 0.999, "epsilon": 0.001, "center": true, "scale": true, "beta_initializer": {"class_name": "Zeros", "config": {}}, "gamma_initializer": {"class_name": "Ones", "config": {}}, "moving_mean_initializer": {"class_name": "Zeros", "config": {}}, "moving_variance_initializer": {"class_name": "Ones", "config": {}}, "beta_regularizer": null, "gamma_regularizer": null, "beta_constraint": null, "gamma_constraint": null}, "name": "block_3_project_BN", "inbound_nodes": [[["block_3_project", 0, 0, {}]]]}, {"class_name": "Conv2D", "config": {"name": "block_4_expand", "trainable": true, "dtype": "float32", "filters": 192, "kernel_size": [1, 1], "strides": [1, 1], "padding": "same", "data_format": "channels_last", "dilation_rate": [1, 1], "groups": 1, "activation": "linear", "use_bias": false, "kernel_initializer": {"class_name": "GlorotUniform", "config": {"seed": null}}, "bias_initializer": {"class_name": "Zeros", "config": {}}, "kernel_regularizer": null, "bias_regularizer": null, "activity_regularizer": null, "kernel_constraint": null, "bias_constraint": null}, "name": "block_4_expand", "inbound_nodes": [[["block_3_project_BN", 0, 0, {}]]]}, {"class_name": "BatchNormalization", "config": {"name": "block_4_expand_BN", "trainable": true, "dtype": "float32", "axis": [3], "momentum": 0.999, "epsilon": 0.001, "center": true, "scale": true, "beta_initializer": {"class_name": "Zeros", "config": {}}, "gamma_initializer": {"class_name": "Ones", "config": {}}, "moving_mean_initializer": {"class_name": "Zeros", "config": {}}, "moving_variance_initializer": {"class_name": "Ones", "config": {}}, "beta_regularizer": null, "gamma_regularizer": null, "beta_constraint": null, "gamma_constraint": null}, "name": "block_4_expand_BN", "inbound_nodes": [[["block_4_expand", 0, 0, {}]]]}, {"class_name": "ReLU", "config": {"name": "block_4_expand_relu", "trainable": true, "dtype": "float32", "max_value": 6.0, "negative_slope": 0.0, "threshold": 0.0}, "name": "block_4_expand_relu", "inbound_nodes": [[["block_4_expand_BN", 0, 0, {}]]]}, {"class_name": "DepthwiseConv2D", "config": {"name": "block_4_depthwise", "trainable": true, "dtype": "float32", "kernel_size": [3, 3], "strides": [1, 1], "padding": "same", "data_format": "channels_last", "dilation_rate": [1, 1], "groups": 1, "activation": "linear", "use_bias": false, "bias_initializer": {"class_name": "Zeros", "config": {}}, "bias_regularizer": null, "activity_regularizer": null, "bias_constraint": null, "depth_multiplier": 1, "depthwise_initializer": {"class_name": "GlorotUniform", "config": {"seed": null}}, "depthwise_regularizer": null, "depthwise_constraint": null}, "name": "block_4_depthwise", "inbound_nodes": [[["block_4_expand_relu", 0, 0, {}]]]}, {"class_name": "BatchNormalization", "config": {"name": "block_4_depthwise_BN", "trainable": true, "dtype": "float32", "axis": [3], "momentum": 0.999, "epsilon": 0.001, "center": true, "scale": true, "beta_initializer": {"class_name": "Zeros", "config": {}}, "gamma_initializer": {"class_name": "Ones", "config": {}}, "moving_mean_initializer": {"class_name": "Zeros", "config": {}}, "moving_variance_initializer": {"class_name": "Ones", "config": {}}, "beta_regularizer": null, "gamma_regularizer": null, "beta_constraint": null, "gamma_constraint": null}, "name": "block_4_depthwise_BN", "inbound_nodes": [[["block_4_depthwise", 0, 0, {}]]]}, {"class_name": "ReLU", "config": {"name": "block_4_depthwise_relu", "trainable": true, "dtype": "float32", "max_value": 6.0, "negative_slope": 0.0, "threshold": 0.0}, "name": "block_4_depthwise_relu", "inbound_nodes": [[["block_4_depthwise_BN", 0, 0, {}]]]}, {"class_name": "Conv2D", "config": {"name": "block_4_project", "trainable": true, "dtype": "float32", "filters": 32, "kernel_size": [1, 1], "strides": [1, 1], "padding": "same", "data_format": "channels_last", "dilation_rate": [1, 1], "groups": 1, "activation": "linear", "use_bias": false, "kernel_initializer": {"class_name": "GlorotUniform", "config": {"seed": null}}, "bias_initializer": {"class_name": "Zeros", "config": {}}, "kernel_regularizer": null, "bias_regularizer": null, "activity_regularizer": null, "kernel_constraint": null, "bias_constraint": null}, "name": "block_4_project", "inbound_nodes": [[["block_4_depthwise_relu", 0, 0, {}]]]}, {"class_name": "BatchNormalization", "config": {"name": "block_4_project_BN", "trainable": true, "dtype": "float32", "axis": [3], "momentum": 0.999, "epsilon": 0.001, "center": true, "scale": true, "beta_initializer": {"class_name": "Zeros", "config": {}}, "gamma_initializer": {"class_name": "Ones", "config": {}}, "moving_mean_initializer": {"class_name": "Zeros", "config": {}}, "moving_variance_initializer": {"class_name": "Ones", "config": {}}, "beta_regularizer": null, "gamma_regularizer": null, "beta_constraint": null, "gamma_constraint": null}, "name": "block_4_project_BN", "inbound_nodes": [[["block_4_project", 0, 0, {}]]]}, {"class_name": "Add", "config": {"name": "block_4_add", "trainable": true, "dtype": "float32"}, "name": "block_4_add", "inbound_nodes": [[["block_3_project_BN", 0, 0, {}], ["block_4_project_BN", 0, 0, {}]]]}, {"class_name": "Conv2D", "config": {"name": "block_5_expand", "trainable": true, "dtype": "float32", "filters": 192, "kernel_size": [1, 1], "strides": [1, 1], "padding": "same", "data_format": "channels_last", "dilation_rate": [1, 1], "groups": 1, "activation": "linear", "use_bias": false, "kernel_initializer": {"class_name": "GlorotUniform", "config": {"seed": null}}, "bias_initializer": {"class_name": "Zeros", "config": {}}, "kernel_regularizer": null, "bias_regularizer": null, "activity_regularizer": null, "kernel_constraint": null, "bias_constraint": null}, "name": "block_5_expand", "inbound_nodes": [[["block_4_add", 0, 0, {}]]]}, {"class_name": "BatchNormalization", "config": {"name": "block_5_expand_BN", "trainable": true, "dtype": "float32", "axis": [3], "momentum": 0.999, "epsilon": 0.001, "center": true, "scale": true, "beta_initializer": {"class_name": "Zeros", "config": {}}, "gamma_initializer": {"class_name": "Ones", "config": {}}, "moving_mean_initializer": {"class_name": "Zeros", "config": {}}, "moving_variance_initializer": {"class_name": "Ones", "config": {}}, "beta_regularizer": null, "gamma_regularizer": null, "beta_constraint": null, "gamma_constraint": null}, "name": "block_5_expand_BN", "inbound_nodes": [[["block_5_expand", 0, 0, {}]]]}, {"class_name": "ReLU", "config": {"name": "block_5_expand_relu", "trainable": true, "dtype": "float32", "max_value": 6.0, "negative_slope": 0.0, "threshold": 0.0}, "name": "block_5_expand_relu", "inbound_nodes": [[["block_5_expand_BN", 0, 0, {}]]]}, {"class_name": "DepthwiseConv2D", "config": {"name": "block_5_depthwise", "trainable": true, "dtype": "float32", "kernel_size": [3, 3], "strides": [1, 1], "padding": "same", "data_format": "channels_last", "dilation_rate": [1, 1], "groups": 1, "activation": "linear", "use_bias": false, "bias_initializer": {"class_name": "Zeros", "config": {}}, "bias_regularizer": null, "activity_regularizer": null, "bias_constraint": null, "depth_multiplier": 1, "depthwise_initializer": {"class_name": "GlorotUniform", "config": {"seed": null}}, "depthwise_regularizer": null, "depthwise_constraint": null}, "name": "block_5_depthwise", "inbound_nodes": [[["block_5_expand_relu", 0, 0, {}]]]}, {"class_name": "BatchNormalization", "config": {"name": "block_5_depthwise_BN", "trainable": true, "dtype": "float32", "axis": [3], "momentum": 0.999, "epsilon": 0.001, "center": true, "scale": true, "beta_initializer": {"class_name": "Zeros", "config": {}}, "gamma_initializer": {"class_name": "Ones", "config": {}}, "moving_mean_initializer": {"class_name": "Zeros", "config": {}}, "moving_variance_initializer": {"class_name": "Ones", "config": {}}, "beta_regularizer": null, "gamma_regularizer": null, "beta_constraint": null, "gamma_constraint": null}, "name": "block_5_depthwise_BN", "inbound_nodes": [[["block_5_depthwise", 0, 0, {}]]]}, {"class_name": "ReLU", "config": {"name": "block_5_depthwise_relu", "trainable": true, "dtype": "float32", "max_value": 6.0, "negative_slope": 0.0, "threshold": 0.0}, "name": "block_5_depthwise_relu", "inbound_nodes": [[["block_5_depthwise_BN", 0, 0, {}]]]}, {"class_name": "Conv2D", "config": {"name": "block_5_project", "trainable": true, "dtype": "float32", "filters": 32, "kernel_size": [1, 1], "strides": [1, 1], "padding": "same", "data_format": "channels_last", "dilation_rate": [1, 1], "groups": 1, "activation": "linear", "use_bias": false, "kernel_initializer": {"class_name": "GlorotUniform", "config": {"seed": null}}, "bias_initializer": {"class_name": "Zeros", "config": {}}, "kernel_regularizer": null, "bias_regularizer": null, "activity_regularizer": null, "kernel_constraint": null, "bias_constraint": null}, "name": "block_5_project", "inbound_nodes": [[["block_5_depthwise_relu", 0, 0, {}]]]}, {"class_name": "BatchNormalization", "config": {"name": "block_5_project_BN", "trainable": true, "dtype": "float32", "axis": [3], "momentum": 0.999, "epsilon": 0.001, "center": true, "scale": true, "beta_initializer": {"class_name": "Zeros", "config": {}}, "gamma_initializer": {"class_name": "Ones", "config": {}}, "moving_mean_initializer": {"class_name": "Zeros", "config": {}}, "moving_variance_initializer": {"class_name": "Ones", "config": {}}, "beta_regularizer": null, "gamma_regularizer": null, "beta_constraint": null, "gamma_constraint": null}, "name": "block_5_project_BN", "inbound_nodes": [[["block_5_project", 0, 0, {}]]]}, {"class_name": "Add", "config": {"name": "block_5_add", "trainable": true, "dtype": "float32"}, "name": "block_5_add", "inbound_nodes": [[["block_4_add", 0, 0, {}], ["block_5_project_BN", 0, 0, {}]]]}, {"class_name": "Conv2D", "config": {"name": "block_6_expand", "trainable": true, "dtype": "float32", "filters": 192, "kernel_size": [1, 1], "strides": [1, 1], "padding": "same", "data_format": "channels_last", "dilation_rate": [1, 1], "groups": 1, "activation": "linear", "use_bias": false, "kernel_initializer": {"class_name": "GlorotUniform", "config": {"seed": null}}, "bias_initializer": {"class_name": "Zeros", "config": {}}, "kernel_regularizer": null, "bias_regularizer": null, "activity_regularizer": null, "kernel_constraint": null, "bias_constraint": null}, "name": "block_6_expand", "inbound_nodes": [[["block_5_add", 0, 0, {}]]]}, {"class_name": "BatchNormalization", "config": {"name": "block_6_expand_BN", "trainable": true, "dtype": "float32", "axis": [3], "momentum": 0.999, "epsilon": 0.001, "center": true, "scale": true, "beta_initializer": {"class_name": "Zeros", "config": {}}, "gamma_initializer": {"class_name": "Ones", "config": {}}, "moving_mean_initializer": {"class_name": "Zeros", "config": {}}, "moving_variance_initializer": {"class_name": "Ones", "config": {}}, "beta_regularizer": null, "gamma_regularizer": null, "beta_constraint": null, "gamma_constraint": null}, "name": "block_6_expand_BN", "inbound_nodes": [[["block_6_expand", 0, 0, {}]]]}, {"class_name": "ReLU", "config": {"name": "block_6_expand_relu", "trainable": true, "dtype": "float32", "max_value": 6.0, "negative_slope": 0.0, "threshold": 0.0}, "name": "block_6_expand_relu", "inbound_nodes": [[["block_6_expand_BN", 0, 0, {}]]]}, {"class_name": "ZeroPadding2D", "config": {"name": "block_6_pad", "trainable": true, "dtype": "float32", "padding": [[0, 1], [0, 1]], "data_format": "channels_last"}, "name": "block_6_pad", "inbound_nodes": [[["block_6_expand_relu", 0, 0, {}]]]}, {"class_name": "DepthwiseConv2D", "config": {"name": "block_6_depthwise", "trainable": true, "dtype": "float32", "kernel_size": [3, 3], "strides": [2, 2], "padding": "valid", "data_format": "channels_last", "dilation_rate": [1, 1], "groups": 1, "activation": "linear", "use_bias": false, "bias_initializer": {"class_name": "Zeros", "config": {}}, "bias_regularizer": null, "activity_regularizer": null, "bias_constraint": null, "depth_multiplier": 1, "depthwise_initializer": {"class_name": "GlorotUniform", "config": {"seed": null}}, "depthwise_regularizer": null, "depthwise_constraint": null}, "name": "block_6_depthwise", "inbound_nodes": [[["block_6_pad", 0, 0, {}]]]}, {"class_name": "BatchNormalization", "config": {"name": "block_6_depthwise_BN", "trainable": true, "dtype": "float32", "axis": [3], "momentum": 0.999, "epsilon": 0.001, "center": true, "scale": true, "beta_initializer": {"class_name": "Zeros", "config": {}}, "gamma_initializer": {"class_name": "Ones", "config": {}}, "moving_mean_initializer": {"class_name": "Zeros", "config": {}}, "moving_variance_initializer": {"class_name": "Ones", "config": {}}, "beta_regularizer": null, "gamma_regularizer": null, "beta_constraint": null, "gamma_constraint": null}, "name": "block_6_depthwise_BN", "inbound_nodes": [[["block_6_depthwise", 0, 0, {}]]]}, {"class_name": "ReLU", "config": {"name": "block_6_depthwise_relu", "trainable": true, "dtype": "float32", "max_value": 6.0, "negative_slope": 0.0, "threshold": 0.0}, "name": "block_6_depthwise_relu", "inbound_nodes": [[["block_6_depthwise_BN", 0, 0, {}]]]}, {"class_name": "Conv2D", "config": {"name": "block_6_project", "trainable": true, "dtype": "float32", "filters": 64, "kernel_size": [1, 1], "strides": [1, 1], "padding": "same", "data_format": "channels_last", "dilation_rate": [1, 1], "groups": 1, "activation": "linear", "use_bias": false, "kernel_initializer": {"class_name": "GlorotUniform", "config": {"seed": null}}, "bias_initializer": {"class_name": "Zeros", "config": {}}, "kernel_regularizer": null, "bias_regularizer": null, "activity_regularizer": null, "kernel_constraint": null, "bias_constraint": null}, "name": "block_6_project", "inbound_nodes": [[["block_6_depthwise_relu", 0, 0, {}]]]}, {"class_name": "BatchNormalization", "config": {"name": "block_6_project_BN", "trainable": true, "dtype": "float32", "axis": [3], "momentum": 0.999, "epsilon": 0.001, "center": true, "scale": true, "beta_initializer": {"class_name": "Zeros", "config": {}}, "gamma_initializer": {"class_name": "Ones", "config": {}}, "moving_mean_initializer": {"class_name": "Zeros", "config": {}}, "moving_variance_initializer": {"class_name": "Ones", "config": {}}, "beta_regularizer": null, "gamma_regularizer": null, "beta_constraint": null, "gamma_constraint": null}, "name": "block_6_project_BN", "inbound_nodes": [[["block_6_project", 0, 0, {}]]]}, {"class_name": "Conv2D", "config": {"name": "block_7_expand", "trainable": true, "dtype": "float32", "filters": 384, "kernel_size": [1, 1], "strides": [1, 1], "padding": "same", "data_format": "channels_last", "dilation_rate": [1, 1], "groups": 1, "activation": "linear", "use_bias": false, "kernel_initializer": {"class_name": "GlorotUniform", "config": {"seed": null}}, "bias_initializer": {"class_name": "Zeros", "config": {}}, "kernel_regularizer": null, "bias_regularizer": null, "activity_regularizer": null, "kernel_constraint": null, "bias_constraint": null}, "name": "block_7_expand", "inbound_nodes": [[["block_6_project_BN", 0, 0, {}]]]}, {"class_name": "BatchNormalization", "config": {"name": "block_7_expand_BN", "trainable": true, "dtype": "float32", "axis": [3], "momentum": 0.999, "epsilon": 0.001, "center": true, "scale": true, "beta_initializer": {"class_name": "Zeros", "config": {}}, "gamma_initializer": {"class_name": "Ones", "config": {}}, "moving_mean_initializer": {"class_name": "Zeros", "config": {}}, "moving_variance_initializer": {"class_name": "Ones", "config": {}}, "beta_regularizer": null, "gamma_regularizer": null, "beta_constraint": null, "gamma_constraint": null}, "name": "block_7_expand_BN", "inbound_nodes": [[["block_7_expand", 0, 0, {}]]]}, {"class_name": "ReLU", "config": {"name": "block_7_expand_relu", "trainable": true, "dtype": "float32", "max_value": 6.0, "negative_slope": 0.0, "threshold": 0.0}, "name": "block_7_expand_relu", "inbound_nodes": [[["block_7_expand_BN", 0, 0, {}]]]}, {"class_name": "DepthwiseConv2D", "config": {"name": "block_7_depthwise", "trainable": true, "dtype": "float32", "kernel_size": [3, 3], "strides": [1, 1], "padding": "same", "data_format": "channels_last", "dilation_rate": [1, 1], "groups": 1, "activation": "linear", "use_bias": false, "bias_initializer": {"class_name": "Zeros", "config": {}}, "bias_regularizer": null, "activity_regularizer": null, "bias_constraint": null, "depth_multiplier": 1, "depthwise_initializer": {"class_name": "GlorotUniform", "config": {"seed": null}}, "depthwise_regularizer": null, "depthwise_constraint": null}, "name": "block_7_depthwise", "inbound_nodes": [[["block_7_expand_relu", 0, 0, {}]]]}, {"class_name": "BatchNormalization", "config": {"name": "block_7_depthwise_BN", "trainable": true, "dtype": "float32", "axis": [3], "momentum": 0.999, "epsilon": 0.001, "center": true, "scale": true, "beta_initializer": {"class_name": "Zeros", "config": {}}, "gamma_initializer": {"class_name": "Ones", "config": {}}, "moving_mean_initializer": {"class_name": "Zeros", "config": {}}, "moving_variance_initializer": {"class_name": "Ones", "config": {}}, "beta_regularizer": null, "gamma_regularizer": null, "beta_constraint": null, "gamma_constraint": null}, "name": "block_7_depthwise_BN", "inbound_nodes": [[["block_7_depthwise", 0, 0, {}]]]}, {"class_name": "ReLU", "config": {"name": "block_7_depthwise_relu", "trainable": true, "dtype": "float32", "max_value": 6.0, "negative_slope": 0.0, "threshold": 0.0}, "name": "block_7_depthwise_relu", "inbound_nodes": [[["block_7_depthwise_BN", 0, 0, {}]]]}, {"class_name": "Conv2D", "config": {"name": "block_7_project", "trainable": true, "dtype": "float32", "filters": 64, "kernel_size": [1, 1], "strides": [1, 1], "padding": "same", "data_format": "channels_last", "dilation_rate": [1, 1], "groups": 1, "activation": "linear", "use_bias": false, "kernel_initializer": {"class_name": "GlorotUniform", "config": {"seed": null}}, "bias_initializer": {"class_name": "Zeros", "config": {}}, "kernel_regularizer": null, "bias_regularizer": null, "activity_regularizer": null, "kernel_constraint": null, "bias_constraint": null}, "name": "block_7_project", "inbound_nodes": [[["block_7_depthwise_relu", 0, 0, {}]]]}, {"class_name": "BatchNormalization", "config": {"name": "block_7_project_BN", "trainable": true, "dtype": "float32", "axis": [3], "momentum": 0.999, "epsilon": 0.001, "center": true, "scale": true, "beta_initializer": {"class_name": "Zeros", "config": {}}, "gamma_initializer": {"class_name": "Ones", "config": {}}, "moving_mean_initializer": {"class_name": "Zeros", "config": {}}, "moving_variance_initializer": {"class_name": "Ones", "config": {}}, "beta_regularizer": null, "gamma_regularizer": null, "beta_constraint": null, "gamma_constraint": null}, "name": "block_7_project_BN", "inbound_nodes": [[["block_7_project", 0, 0, {}]]]}, {"class_name": "Add", "config": {"name": "block_7_add", "trainable": true, "dtype": "float32"}, "name": "block_7_add", "inbound_nodes": [[["block_6_project_BN", 0, 0, {}], ["block_7_project_BN", 0, 0, {}]]]}, {"class_name": "Conv2D", "config": {"name": "block_8_expand", "trainable": true, "dtype": "float32", "filters": 384, "kernel_size": [1, 1], "strides": [1, 1], "padding": "same", "data_format": "channels_last", "dilation_rate": [1, 1], "groups": 1, "activation": "linear", "use_bias": false, "kernel_initializer": {"class_name": "GlorotUniform", "config": {"seed": null}}, "bias_initializer": {"class_name": "Zeros", "config": {}}, "kernel_regularizer": null, "bias_regularizer": null, "activity_regularizer": null, "kernel_constraint": null, "bias_constraint": null}, "name": "block_8_expand", "inbound_nodes": [[["block_7_add", 0, 0, {}]]]}, {"class_name": "BatchNormalization", "config": {"name": "block_8_expand_BN", "trainable": true, "dtype": "float32", "axis": [3], "momentum": 0.999, "epsilon": 0.001, "center": true, "scale": true, "beta_initializer": {"class_name": "Zeros", "config": {}}, "gamma_initializer": {"class_name": "Ones", "config": {}}, "moving_mean_initializer": {"class_name": "Zeros", "config": {}}, "moving_variance_initializer": {"class_name": "Ones", "config": {}}, "beta_regularizer": null, "gamma_regularizer": null, "beta_constraint": null, "gamma_constraint": null}, "name": "block_8_expand_BN", "inbound_nodes": [[["block_8_expand", 0, 0, {}]]]}, {"class_name": "ReLU", "config": {"name": "block_8_expand_relu", "trainable": true, "dtype": "float32", "max_value": 6.0, "negative_slope": 0.0, "threshold": 0.0}, "name": "block_8_expand_relu", "inbound_nodes": [[["block_8_expand_BN", 0, 0, {}]]]}, {"class_name": "DepthwiseConv2D", "config": {"name": "block_8_depthwise", "trainable": true, "dtype": "float32", "kernel_size": [3, 3], "strides": [1, 1], "padding": "same", "data_format": "channels_last", "dilation_rate": [1, 1], "groups": 1, "activation": "linear", "use_bias": false, "bias_initializer": {"class_name": "Zeros", "config": {}}, "bias_regularizer": null, "activity_regularizer": null, "bias_constraint": null, "depth_multiplier": 1, "depthwise_initializer": {"class_name": "GlorotUniform", "config": {"seed": null}}, "depthwise_regularizer": null, "depthwise_constraint": null}, "name": "block_8_depthwise", "inbound_nodes": [[["block_8_expand_relu", 0, 0, {}]]]}, {"class_name": "BatchNormalization", "config": {"name": "block_8_depthwise_BN", "trainable": true, "dtype": "float32", "axis": [3], "momentum": 0.999, "epsilon": 0.001, "center": true, "scale": true, "beta_initializer": {"class_name": "Zeros", "config": {}}, "gamma_initializer": {"class_name": "Ones", "config": {}}, "moving_mean_initializer": {"class_name": "Zeros", "config": {}}, "moving_variance_initializer": {"class_name": "Ones", "config": {}}, "beta_regularizer": null, "gamma_regularizer": null, "beta_constraint": null, "gamma_constraint": null}, "name": "block_8_depthwise_BN", "inbound_nodes": [[["block_8_depthwise", 0, 0, {}]]]}, {"class_name": "ReLU", "config": {"name": "block_8_depthwise_relu", "trainable": true, "dtype": "float32", "max_value": 6.0, "negative_slope": 0.0, "threshold": 0.0}, "name": "block_8_depthwise_relu", "inbound_nodes": [[["block_8_depthwise_BN", 0, 0, {}]]]}, {"class_name": "Conv2D", "config": {"name": "block_8_project", "trainable": true, "dtype": "float32", "filters": 64, "kernel_size": [1, 1], "strides": [1, 1], "padding": "same", "data_format": "channels_last", "dilation_rate": [1, 1], "groups": 1, "activation": "linear", "use_bias": false, "kernel_initializer": {"class_name": "GlorotUniform", "config": {"seed": null}}, "bias_initializer": {"class_name": "Zeros", "config": {}}, "kernel_regularizer": null, "bias_regularizer": null, "activity_regularizer": null, "kernel_constraint": null, "bias_constraint": null}, "name": "block_8_project", "inbound_nodes": [[["block_8_depthwise_relu", 0, 0, {}]]]}, {"class_name": "BatchNormalization", "config": {"name": "block_8_project_BN", "trainable": true, "dtype": "float32", "axis": [3], "momentum": 0.999, "epsilon": 0.001, "center": true, "scale": true, "beta_initializer": {"class_name": "Zeros", "config": {}}, "gamma_initializer": {"class_name": "Ones", "config": {}}, "moving_mean_initializer": {"class_name": "Zeros", "config": {}}, "moving_variance_initializer": {"class_name": "Ones", "config": {}}, "beta_regularizer": null, "gamma_regularizer": null, "beta_constraint": null, "gamma_constraint": null}, "name": "block_8_project_BN", "inbound_nodes": [[["block_8_project", 0, 0, {}]]]}, {"class_name": "Add", "config": {"name": "block_8_add", "trainable": true, "dtype": "float32"}, "name": "block_8_add", "inbound_nodes": [[["block_7_add", 0, 0, {}], ["block_8_project_BN", 0, 0, {}]]]}, {"class_name": "Conv2D", "config": {"name": "block_9_expand", "trainable": true, "dtype": "float32", "filters": 384, "kernel_size": [1, 1], "strides": [1, 1], "padding": "same", "data_format": "channels_last", "dilation_rate": [1, 1], "groups": 1, "activation": "linear", "use_bias": false, "kernel_initializer": {"class_name": "GlorotUniform", "config": {"seed": null}}, "bias_initializer": {"class_name": "Zeros", "config": {}}, "kernel_regularizer": null, "bias_regularizer": null, "activity_regularizer": null, "kernel_constraint": null, "bias_constraint": null}, "name": "block_9_expand", "inbound_nodes": [[["block_8_add", 0, 0, {}]]]}, {"class_name": "BatchNormalization", "config": {"name": "block_9_expand_BN", "trainable": true, "dtype": "float32", "axis": [3], "momentum": 0.999, "epsilon": 0.001, "center": true, "scale": true, "beta_initializer": {"class_name": "Zeros", "config": {}}, "gamma_initializer": {"class_name": "Ones", "config": {}}, "moving_mean_initializer": {"class_name": "Zeros", "config": {}}, "moving_variance_initializer": {"class_name": "Ones", "config": {}}, "beta_regularizer": null, "gamma_regularizer": null, "beta_constraint": null, "gamma_constraint": null}, "name": "block_9_expand_BN", "inbound_nodes": [[["block_9_expand", 0, 0, {}]]]}, {"class_name": "ReLU", "config": {"name": "block_9_expand_relu", "trainable": true, "dtype": "float32", "max_value": 6.0, "negative_slope": 0.0, "threshold": 0.0}, "name": "block_9_expand_relu", "inbound_nodes": [[["block_9_expand_BN", 0, 0, {}]]]}, {"class_name": "DepthwiseConv2D", "config": {"name": "block_9_depthwise", "trainable": true, "dtype": "float32", "kernel_size": [3, 3], "strides": [1, 1], "padding": "same", "data_format": "channels_last", "dilation_rate": [1, 1], "groups": 1, "activation": "linear", "use_bias": false, "bias_initializer": {"class_name": "Zeros", "config": {}}, "bias_regularizer": null, "activity_regularizer": null, "bias_constraint": null, "depth_multiplier": 1, "depthwise_initializer": {"class_name": "GlorotUniform", "config": {"seed": null}}, "depthwise_regularizer": null, "depthwise_constraint": null}, "name": "block_9_depthwise", "inbound_nodes": [[["block_9_expand_relu", 0, 0, {}]]]}, {"class_name": "BatchNormalization", "config": {"name": "block_9_depthwise_BN", "trainable": true, "dtype": "float32", "axis": [3], "momentum": 0.999, "epsilon": 0.001, "center": true, "scale": true, "beta_initializer": {"class_name": "Zeros", "config": {}}, "gamma_initializer": {"class_name": "Ones", "config": {}}, "moving_mean_initializer": {"class_name": "Zeros", "config": {}}, "moving_variance_initializer": {"class_name": "Ones", "config": {}}, "beta_regularizer": null, "gamma_regularizer": null, "beta_constraint": null, "gamma_constraint": null}, "name": "block_9_depthwise_BN", "inbound_nodes": [[["block_9_depthwise", 0, 0, {}]]]}, {"class_name": "ReLU", "config": {"name": "block_9_depthwise_relu", "trainable": true, "dtype": "float32", "max_value": 6.0, "negative_slope": 0.0, "threshold": 0.0}, "name": "block_9_depthwise_relu", "inbound_nodes": [[["block_9_depthwise_BN", 0, 0, {}]]]}, {"class_name": "Conv2D", "config": {"name": "block_9_project", "trainable": true, "dtype": "float32", "filters": 64, "kernel_size": [1, 1], "strides": [1, 1], "padding": "same", "data_format": "channels_last", "dilation_rate": [1, 1], "groups": 1, "activation": "linear", "use_bias": false, "kernel_initializer": {"class_name": "GlorotUniform", "config": {"seed": null}}, "bias_initializer": {"class_name": "Zeros", "config": {}}, "kernel_regularizer": null, "bias_regularizer": null, "activity_regularizer": null, "kernel_constraint": null, "bias_constraint": null}, "name": "block_9_project", "inbound_nodes": [[["block_9_depthwise_relu", 0, 0, {}]]]}, {"class_name": "BatchNormalization", "config": {"name": "block_9_project_BN", "trainable": true, "dtype": "float32", "axis": [3], "momentum": 0.999, "epsilon": 0.001, "center": true, "scale": true, "beta_initializer": {"class_name": "Zeros", "config": {}}, "gamma_initializer": {"class_name": "Ones", "config": {}}, "moving_mean_initializer": {"class_name": "Zeros", "config": {}}, "moving_variance_initializer": {"class_name": "Ones", "config": {}}, "beta_regularizer": null, "gamma_regularizer": null, "beta_constraint": null, "gamma_constraint": null}, "name": "block_9_project_BN", "inbound_nodes": [[["block_9_project", 0, 0, {}]]]}, {"class_name": "Add", "config": {"name": "block_9_add", "trainable": true, "dtype": "float32"}, "name": "block_9_add", "inbound_nodes": [[["block_8_add", 0, 0, {}], ["block_9_project_BN", 0, 0, {}]]]}, {"class_name": "Conv2D", "config": {"name": "block_10_expand", "trainable": true, "dtype": "float32", "filters": 384, "kernel_size": [1, 1], "strides": [1, 1], "padding": "same", "data_format": "channels_last", "dilation_rate": [1, 1], "groups": 1, "activation": "linear", "use_bias": false, "kernel_initializer": {"class_name": "GlorotUniform", "config": {"seed": null}}, "bias_initializer": {"class_name": "Zeros", "config": {}}, "kernel_regularizer": null, "bias_regularizer": null, "activity_regularizer": null, "kernel_constraint": null, "bias_constraint": null}, "name": "block_10_expand", "inbound_nodes": [[["block_9_add", 0, 0, {}]]]}, {"class_name": "BatchNormalization", "config": {"name": "block_10_expand_BN", "trainable": true, "dtype": "float32", "axis": [3], "momentum": 0.999, "epsilon": 0.001, "center": true, "scale": true, "beta_initializer": {"class_name": "Zeros", "config": {}}, "gamma_initializer": {"class_name": "Ones", "config": {}}, "moving_mean_initializer": {"class_name": "Zeros", "config": {}}, "moving_variance_initializer": {"class_name": "Ones", "config": {}}, "beta_regularizer": null, "gamma_regularizer": null, "beta_constraint": null, "gamma_constraint": null}, "name": "block_10_expand_BN", "inbound_nodes": [[["block_10_expand", 0, 0, {}]]]}, {"class_name": "ReLU", "config": {"name": "block_10_expand_relu", "trainable": true, "dtype": "float32", "max_value": 6.0, "negative_slope": 0.0, "threshold": 0.0}, "name": "block_10_expand_relu", "inbound_nodes": [[["block_10_expand_BN", 0, 0, {}]]]}, {"class_name": "DepthwiseConv2D", "config": {"name": "block_10_depthwise", "trainable": true, "dtype": "float32", "kernel_size": [3, 3], "strides": [1, 1], "padding": "same", "data_format": "channels_last", "dilation_rate": [1, 1], "groups": 1, "activation": "linear", "use_bias": false, "bias_initializer": {"class_name": "Zeros", "config": {}}, "bias_regularizer": null, "activity_regularizer": null, "bias_constraint": null, "depth_multiplier": 1, "depthwise_initializer": {"class_name": "GlorotUniform", "config": {"seed": null}}, "depthwise_regularizer": null, "depthwise_constraint": null}, "name": "block_10_depthwise", "inbound_nodes": [[["block_10_expand_relu", 0, 0, {}]]]}, {"class_name": "BatchNormalization", "config": {"name": "block_10_depthwise_BN", "trainable": true, "dtype": "float32", "axis": [3], "momentum": 0.999, "epsilon": 0.001, "center": true, "scale": true, "beta_initializer": {"class_name": "Zeros", "config": {}}, "gamma_initializer": {"class_name": "Ones", "config": {}}, "moving_mean_initializer": {"class_name": "Zeros", "config": {}}, "moving_variance_initializer": {"class_name": "Ones", "config": {}}, "beta_regularizer": null, "gamma_regularizer": null, "beta_constraint": null, "gamma_constraint": null}, "name": "block_10_depthwise_BN", "inbound_nodes": [[["block_10_depthwise", 0, 0, {}]]]}, {"class_name": "ReLU", "config": {"name": "block_10_depthwise_relu", "trainable": true, "dtype": "float32", "max_value": 6.0, "negative_slope": 0.0, "threshold": 0.0}, "name": "block_10_depthwise_relu", "inbound_nodes": [[["block_10_depthwise_BN", 0, 0, {}]]]}, {"class_name": "Conv2D", "config": {"name": "block_10_project", "trainable": true, "dtype": "float32", "filters": 96, "kernel_size": [1, 1], "strides": [1, 1], "padding": "same", "data_format": "channels_last", "dilation_rate": [1, 1], "groups": 1, "activation": "linear", "use_bias": false, "kernel_initializer": {"class_name": "GlorotUniform", "config": {"seed": null}}, "bias_initializer": {"class_name": "Zeros", "config": {}}, "kernel_regularizer": null, "bias_regularizer": null, "activity_regularizer": null, "kernel_constraint": null, "bias_constraint": null}, "name": "block_10_project", "inbound_nodes": [[["block_10_depthwise_relu", 0, 0, {}]]]}, {"class_name": "BatchNormalization", "config": {"name": "block_10_project_BN", "trainable": true, "dtype": "float32", "axis": [3], "momentum": 0.999, "epsilon": 0.001, "center": true, "scale": true, "beta_initializer": {"class_name": "Zeros", "config": {}}, "gamma_initializer": {"class_name": "Ones", "config": {}}, "moving_mean_initializer": {"class_name": "Zeros", "config": {}}, "moving_variance_initializer": {"class_name": "Ones", "config": {}}, "beta_regularizer": null, "gamma_regularizer": null, "beta_constraint": null, "gamma_constraint": null}, "name": "block_10_project_BN", "inbound_nodes": [[["block_10_project", 0, 0, {}]]]}, {"class_name": "Conv2D", "config": {"name": "block_11_expand", "trainable": true, "dtype": "float32", "filters": 576, "kernel_size": [1, 1], "strides": [1, 1], "padding": "same", "data_format": "channels_last", "dilation_rate": [1, 1], "groups": 1, "activation": "linear", "use_bias": false, "kernel_initializer": {"class_name": "GlorotUniform", "config": {"seed": null}}, "bias_initializer": {"class_name": "Zeros", "config": {}}, "kernel_regularizer": null, "bias_regularizer": null, "activity_regularizer": null, "kernel_constraint": null, "bias_constraint": null}, "name": "block_11_expand", "inbound_nodes": [[["block_10_project_BN", 0, 0, {}]]]}, {"class_name": "BatchNormalization", "config": {"name": "block_11_expand_BN", "trainable": true, "dtype": "float32", "axis": [3], "momentum": 0.999, "epsilon": 0.001, "center": true, "scale": true, "beta_initializer": {"class_name": "Zeros", "config": {}}, "gamma_initializer": {"class_name": "Ones", "config": {}}, "moving_mean_initializer": {"class_name": "Zeros", "config": {}}, "moving_variance_initializer": {"class_name": "Ones", "config": {}}, "beta_regularizer": null, "gamma_regularizer": null, "beta_constraint": null, "gamma_constraint": null}, "name": "block_11_expand_BN", "inbound_nodes": [[["block_11_expand", 0, 0, {}]]]}, {"class_name": "ReLU", "config": {"name": "block_11_expand_relu", "trainable": true, "dtype": "float32", "max_value": 6.0, "negative_slope": 0.0, "threshold": 0.0}, "name": "block_11_expand_relu", "inbound_nodes": [[["block_11_expand_BN", 0, 0, {}]]]}, {"class_name": "DepthwiseConv2D", "config": {"name": "block_11_depthwise", "trainable": true, "dtype": "float32", "kernel_size": [3, 3], "strides": [1, 1], "padding": "same", "data_format": "channels_last", "dilation_rate": [1, 1], "groups": 1, "activation": "linear", "use_bias": false, "bias_initializer": {"class_name": "Zeros", "config": {}}, "bias_regularizer": null, "activity_regularizer": null, "bias_constraint": null, "depth_multiplier": 1, "depthwise_initializer": {"class_name": "GlorotUniform", "config": {"seed": null}}, "depthwise_regularizer": null, "depthwise_constraint": null}, "name": "block_11_depthwise", "inbound_nodes": [[["block_11_expand_relu", 0, 0, {}]]]}, {"class_name": "BatchNormalization", "config": {"name": "block_11_depthwise_BN", "trainable": true, "dtype": "float32", "axis": [3], "momentum": 0.999, "epsilon": 0.001, "center": true, "scale": true, "beta_initializer": {"class_name": "Zeros", "config": {}}, "gamma_initializer": {"class_name": "Ones", "config": {}}, "moving_mean_initializer": {"class_name": "Zeros", "config": {}}, "moving_variance_initializer": {"class_name": "Ones", "config": {}}, "beta_regularizer": null, "gamma_regularizer": null, "beta_constraint": null, "gamma_constraint": null}, "name": "block_11_depthwise_BN", "inbound_nodes": [[["block_11_depthwise", 0, 0, {}]]]}, {"class_name": "ReLU", "config": {"name": "block_11_depthwise_relu", "trainable": true, "dtype": "float32", "max_value": 6.0, "negative_slope": 0.0, "threshold": 0.0}, "name": "block_11_depthwise_relu", "inbound_nodes": [[["block_11_depthwise_BN", 0, 0, {}]]]}, {"class_name": "Conv2D", "config": {"name": "block_11_project", "trainable": true, "dtype": "float32", "filters": 96, "kernel_size": [1, 1], "strides": [1, 1], "padding": "same", "data_format": "channels_last", "dilation_rate": [1, 1], "groups": 1, "activation": "linear", "use_bias": false, "kernel_initializer": {"class_name": "GlorotUniform", "config": {"seed": null}}, "bias_initializer": {"class_name": "Zeros", "config": {}}, "kernel_regularizer": null, "bias_regularizer": null, "activity_regularizer": null, "kernel_constraint": null, "bias_constraint": null}, "name": "block_11_project", "inbound_nodes": [[["block_11_depthwise_relu", 0, 0, {}]]]}, {"class_name": "BatchNormalization", "config": {"name": "block_11_project_BN", "trainable": true, "dtype": "float32", "axis": [3], "momentum": 0.999, "epsilon": 0.001, "center": true, "scale": true, "beta_initializer": {"class_name": "Zeros", "config": {}}, "gamma_initializer": {"class_name": "Ones", "config": {}}, "moving_mean_initializer": {"class_name": "Zeros", "config": {}}, "moving_variance_initializer": {"class_name": "Ones", "config": {}}, "beta_regularizer": null, "gamma_regularizer": null, "beta_constraint": null, "gamma_constraint": null}, "name": "block_11_project_BN", "inbound_nodes": [[["block_11_project", 0, 0, {}]]]}, {"class_name": "Add", "config": {"name": "block_11_add", "trainable": true, "dtype": "float32"}, "name": "block_11_add", "inbound_nodes": [[["block_10_project_BN", 0, 0, {}], ["block_11_project_BN", 0, 0, {}]]]}, {"class_name": "Conv2D", "config": {"name": "block_12_expand", "trainable": true, "dtype": "float32", "filters": 576, "kernel_size": [1, 1], "strides": [1, 1], "padding": "same", "data_format": "channels_last", "dilation_rate": [1, 1], "groups": 1, "activation": "linear", "use_bias": false, "kernel_initializer": {"class_name": "GlorotUniform", "config": {"seed": null}}, "bias_initializer": {"class_name": "Zeros", "config": {}}, "kernel_regularizer": null, "bias_regularizer": null, "activity_regularizer": null, "kernel_constraint": null, "bias_constraint": null}, "name": "block_12_expand", "inbound_nodes": [[["block_11_add", 0, 0, {}]]]}, {"class_name": "BatchNormalization", "config": {"name": "block_12_expand_BN", "trainable": true, "dtype": "float32", "axis": [3], "momentum": 0.999, "epsilon": 0.001, "center": true, "scale": true, "beta_initializer": {"class_name": "Zeros", "config": {}}, "gamma_initializer": {"class_name": "Ones", "config": {}}, "moving_mean_initializer": {"class_name": "Zeros", "config": {}}, "moving_variance_initializer": {"class_name": "Ones", "config": {}}, "beta_regularizer": null, "gamma_regularizer": null, "beta_constraint": null, "gamma_constraint": null}, "name": "block_12_expand_BN", "inbound_nodes": [[["block_12_expand", 0, 0, {}]]]}, {"class_name": "ReLU", "config": {"name": "block_12_expand_relu", "trainable": true, "dtype": "float32", "max_value": 6.0, "negative_slope": 0.0, "threshold": 0.0}, "name": "block_12_expand_relu", "inbound_nodes": [[["block_12_expand_BN", 0, 0, {}]]]}, {"class_name": "DepthwiseConv2D", "config": {"name": "block_12_depthwise", "trainable": true, "dtype": "float32", "kernel_size": [3, 3], "strides": [1, 1], "padding": "same", "data_format": "channels_last", "dilation_rate": [1, 1], "groups": 1, "activation": "linear", "use_bias": false, "bias_initializer": {"class_name": "Zeros", "config": {}}, "bias_regularizer": null, "activity_regularizer": null, "bias_constraint": null, "depth_multiplier": 1, "depthwise_initializer": {"class_name": "GlorotUniform", "config": {"seed": null}}, "depthwise_regularizer": null, "depthwise_constraint": null}, "name": "block_12_depthwise", "inbound_nodes": [[["block_12_expand_relu", 0, 0, {}]]]}, {"class_name": "BatchNormalization", "config": {"name": "block_12_depthwise_BN", "trainable": true, "dtype": "float32", "axis": [3], "momentum": 0.999, "epsilon": 0.001, "center": true, "scale": true, "beta_initializer": {"class_name": "Zeros", "config": {}}, "gamma_initializer": {"class_name": "Ones", "config": {}}, "moving_mean_initializer": {"class_name": "Zeros", "config": {}}, "moving_variance_initializer": {"class_name": "Ones", "config": {}}, "beta_regularizer": null, "gamma_regularizer": null, "beta_constraint": null, "gamma_constraint": null}, "name": "block_12_depthwise_BN", "inbound_nodes": [[["block_12_depthwise", 0, 0, {}]]]}, {"class_name": "ReLU", "config": {"name": "block_12_depthwise_relu", "trainable": true, "dtype": "float32", "max_value": 6.0, "negative_slope": 0.0, "threshold": 0.0}, "name": "block_12_depthwise_relu", "inbound_nodes": [[["block_12_depthwise_BN", 0, 0, {}]]]}, {"class_name": "Conv2D", "config": {"name": "block_12_project", "trainable": true, "dtype": "float32", "filters": 96, "kernel_size": [1, 1], "strides": [1, 1], "padding": "same", "data_format": "channels_last", "dilation_rate": [1, 1], "groups": 1, "activation": "linear", "use_bias": false, "kernel_initializer": {"class_name": "GlorotUniform", "config": {"seed": null}}, "bias_initializer": {"class_name": "Zeros", "config": {}}, "kernel_regularizer": null, "bias_regularizer": null, "activity_regularizer": null, "kernel_constraint": null, "bias_constraint": null}, "name": "block_12_project", "inbound_nodes": [[["block_12_depthwise_relu", 0, 0, {}]]]}, {"class_name": "BatchNormalization", "config": {"name": "block_12_project_BN", "trainable": true, "dtype": "float32", "axis": [3], "momentum": 0.999, "epsilon": 0.001, "center": true, "scale": true, "beta_initializer": {"class_name": "Zeros", "config": {}}, "gamma_initializer": {"class_name": "Ones", "config": {}}, "moving_mean_initializer": {"class_name": "Zeros", "config": {}}, "moving_variance_initializer": {"class_name": "Ones", "config": {}}, "beta_regularizer": null, "gamma_regularizer": null, "beta_constraint": null, "gamma_constraint": null}, "name": "block_12_project_BN", "inbound_nodes": [[["block_12_project", 0, 0, {}]]]}, {"class_name": "Add", "config": {"name": "block_12_add", "trainable": true, "dtype": "float32"}, "name": "block_12_add", "inbound_nodes": [[["block_11_add", 0, 0, {}], ["block_12_project_BN", 0, 0, {}]]]}, {"class_name": "Conv2D", "config": {"name": "block_13_expand", "trainable": true, "dtype": "float32", "filters": 576, "kernel_size": [1, 1], "strides": [1, 1], "padding": "same", "data_format": "channels_last", "dilation_rate": [1, 1], "groups": 1, "activation": "linear", "use_bias": false, "kernel_initializer": {"class_name": "GlorotUniform", "config": {"seed": null}}, "bias_initializer": {"class_name": "Zeros", "config": {}}, "kernel_regularizer": null, "bias_regularizer": null, "activity_regularizer": null, "kernel_constraint": null, "bias_constraint": null}, "name": "block_13_expand", "inbound_nodes": [[["block_12_add", 0, 0, {}]]]}, {"class_name": "BatchNormalization", "config": {"name": "block_13_expand_BN", "trainable": true, "dtype": "float32", "axis": [3], "momentum": 0.999, "epsilon": 0.001, "center": true, "scale": true, "beta_initializer": {"class_name": "Zeros", "config": {}}, "gamma_initializer": {"class_name": "Ones", "config": {}}, "moving_mean_initializer": {"class_name": "Zeros", "config": {}}, "moving_variance_initializer": {"class_name": "Ones", "config": {}}, "beta_regularizer": null, "gamma_regularizer": null, "beta_constraint": null, "gamma_constraint": null}, "name": "block_13_expand_BN", "inbound_nodes": [[["block_13_expand", 0, 0, {}]]]}, {"class_name": "ReLU", "config": {"name": "block_13_expand_relu", "trainable": true, "dtype": "float32", "max_value": 6.0, "negative_slope": 0.0, "threshold": 0.0}, "name": "block_13_expand_relu", "inbound_nodes": [[["block_13_expand_BN", 0, 0, {}]]]}, {"class_name": "ZeroPadding2D", "config": {"name": "block_13_pad", "trainable": true, "dtype": "float32", "padding": [[0, 1], [0, 1]], "data_format": "channels_last"}, "name": "block_13_pad", "inbound_nodes": [[["block_13_expand_relu", 0, 0, {}]]]}, {"class_name": "DepthwiseConv2D", "config": {"name": "block_13_depthwise", "trainable": true, "dtype": "float32", "kernel_size": [3, 3], "strides": [2, 2], "padding": "valid", "data_format": "channels_last", "dilation_rate": [1, 1], "groups": 1, "activation": "linear", "use_bias": false, "bias_initializer": {"class_name": "Zeros", "config": {}}, "bias_regularizer": null, "activity_regularizer": null, "bias_constraint": null, "depth_multiplier": 1, "depthwise_initializer": {"class_name": "GlorotUniform", "config": {"seed": null}}, "depthwise_regularizer": null, "depthwise_constraint": null}, "name": "block_13_depthwise", "inbound_nodes": [[["block_13_pad", 0, 0, {}]]]}, {"class_name": "BatchNormalization", "config": {"name": "block_13_depthwise_BN", "trainable": true, "dtype": "float32", "axis": [3], "momentum": 0.999, "epsilon": 0.001, "center": true, "scale": true, "beta_initializer": {"class_name": "Zeros", "config": {}}, "gamma_initializer": {"class_name": "Ones", "config": {}}, "moving_mean_initializer": {"class_name": "Zeros", "config": {}}, "moving_variance_initializer": {"class_name": "Ones", "config": {}}, "beta_regularizer": null, "gamma_regularizer": null, "beta_constraint": null, "gamma_constraint": null}, "name": "block_13_depthwise_BN", "inbound_nodes": [[["block_13_depthwise", 0, 0, {}]]]}, {"class_name": "ReLU", "config": {"name": "block_13_depthwise_relu", "trainable": true, "dtype": "float32", "max_value": 6.0, "negative_slope": 0.0, "threshold": 0.0}, "name": "block_13_depthwise_relu", "inbound_nodes": [[["block_13_depthwise_BN", 0, 0, {}]]]}, {"class_name": "Conv2D", "config": {"name": "block_13_project", "trainable": true, "dtype": "float32", "filters": 160, "kernel_size": [1, 1], "strides": [1, 1], "padding": "same", "data_format": "channels_last", "dilation_rate": [1, 1], "groups": 1, "activation": "linear", "use_bias": false, "kernel_initializer": {"class_name": "GlorotUniform", "config": {"seed": null}}, "bias_initializer": {"class_name": "Zeros", "config": {}}, "kernel_regularizer": null, "bias_regularizer": null, "activity_regularizer": null, "kernel_constraint": null, "bias_constraint": null}, "name": "block_13_project", "inbound_nodes": [[["block_13_depthwise_relu", 0, 0, {}]]]}, {"class_name": "BatchNormalization", "config": {"name": "block_13_project_BN", "trainable": true, "dtype": "float32", "axis": [3], "momentum": 0.999, "epsilon": 0.001, "center": true, "scale": true, "beta_initializer": {"class_name": "Zeros", "config": {}}, "gamma_initializer": {"class_name": "Ones", "config": {}}, "moving_mean_initializer": {"class_name": "Zeros", "config": {}}, "moving_variance_initializer": {"class_name": "Ones", "config": {}}, "beta_regularizer": null, "gamma_regularizer": null, "beta_constraint": null, "gamma_constraint": null}, "name": "block_13_project_BN", "inbound_nodes": [[["block_13_project", 0, 0, {}]]]}, {"class_name": "Conv2D", "config": {"name": "block_14_expand", "trainable": true, "dtype": "float32", "filters": 960, "kernel_size": [1, 1], "strides": [1, 1], "padding": "same", "data_format": "channels_last", "dilation_rate": [1, 1], "groups": 1, "activation": "linear", "use_bias": false, "kernel_initializer": {"class_name": "GlorotUniform", "config": {"seed": null}}, "bias_initializer": {"class_name": "Zeros", "config": {}}, "kernel_regularizer": null, "bias_regularizer": null, "activity_regularizer": null, "kernel_constraint": null, "bias_constraint": null}, "name": "block_14_expand", "inbound_nodes": [[["block_13_project_BN", 0, 0, {}]]]}, {"class_name": "BatchNormalization", "config": {"name": "block_14_expand_BN", "trainable": true, "dtype": "float32", "axis": [3], "momentum": 0.999, "epsilon": 0.001, "center": true, "scale": true, "beta_initializer": {"class_name": "Zeros", "config": {}}, "gamma_initializer": {"class_name": "Ones", "config": {}}, "moving_mean_initializer": {"class_name": "Zeros", "config": {}}, "moving_variance_initializer": {"class_name": "Ones", "config": {}}, "beta_regularizer": null, "gamma_regularizer": null, "beta_constraint": null, "gamma_constraint": null}, "name": "block_14_expand_BN", "inbound_nodes": [[["block_14_expand", 0, 0, {}]]]}, {"class_name": "ReLU", "config": {"name": "block_14_expand_relu", "trainable": true, "dtype": "float32", "max_value": 6.0, "negative_slope": 0.0, "threshold": 0.0}, "name": "block_14_expand_relu", "inbound_nodes": [[["block_14_expand_BN", 0, 0, {}]]]}, {"class_name": "DepthwiseConv2D", "config": {"name": "block_14_depthwise", "trainable": true, "dtype": "float32", "kernel_size": [3, 3], "strides": [1, 1], "padding": "same", "data_format": "channels_last", "dilation_rate": [1, 1], "groups": 1, "activation": "linear", "use_bias": false, "bias_initializer": {"class_name": "Zeros", "config": {}}, "bias_regularizer": null, "activity_regularizer": null, "bias_constraint": null, "depth_multiplier": 1, "depthwise_initializer": {"class_name": "GlorotUniform", "config": {"seed": null}}, "depthwise_regularizer": null, "depthwise_constraint": null}, "name": "block_14_depthwise", "inbound_nodes": [[["block_14_expand_relu", 0, 0, {}]]]}, {"class_name": "BatchNormalization", "config": {"name": "block_14_depthwise_BN", "trainable": true, "dtype": "float32", "axis": [3], "momentum": 0.999, "epsilon": 0.001, "center": true, "scale": true, "beta_initializer": {"class_name": "Zeros", "config": {}}, "gamma_initializer": {"class_name": "Ones", "config": {}}, "moving_mean_initializer": {"class_name": "Zeros", "config": {}}, "moving_variance_initializer": {"class_name": "Ones", "config": {}}, "beta_regularizer": null, "gamma_regularizer": null, "beta_constraint": null, "gamma_constraint": null}, "name": "block_14_depthwise_BN", "inbound_nodes": [[["block_14_depthwise", 0, 0, {}]]]}, {"class_name": "ReLU", "config": {"name": "block_14_depthwise_relu", "trainable": true, "dtype": "float32", "max_value": 6.0, "negative_slope": 0.0, "threshold": 0.0}, "name": "block_14_depthwise_relu", "inbound_nodes": [[["block_14_depthwise_BN", 0, 0, {}]]]}, {"class_name": "Conv2D", "config": {"name": "block_14_project", "trainable": true, "dtype": "float32", "filters": 160, "kernel_size": [1, 1], "strides": [1, 1], "padding": "same", "data_format": "channels_last", "dilation_rate": [1, 1], "groups": 1, "activation": "linear", "use_bias": false, "kernel_initializer": {"class_name": "GlorotUniform", "config": {"seed": null}}, "bias_initializer": {"class_name": "Zeros", "config": {}}, "kernel_regularizer": null, "bias_regularizer": null, "activity_regularizer": null, "kernel_constraint": null, "bias_constraint": null}, "name": "block_14_project", "inbound_nodes": [[["block_14_depthwise_relu", 0, 0, {}]]]}, {"class_name": "BatchNormalization", "config": {"name": "block_14_project_BN", "trainable": true, "dtype": "float32", "axis": [3], "momentum": 0.999, "epsilon": 0.001, "center": true, "scale": true, "beta_initializer": {"class_name": "Zeros", "config": {}}, "gamma_initializer": {"class_name": "Ones", "config": {}}, "moving_mean_initializer": {"class_name": "Zeros", "config": {}}, "moving_variance_initializer": {"class_name": "Ones", "config": {}}, "beta_regularizer": null, "gamma_regularizer": null, "beta_constraint": null, "gamma_constraint": null}, "name": "block_14_project_BN", "inbound_nodes": [[["block_14_project", 0, 0, {}]]]}, {"class_name": "Add", "config": {"name": "block_14_add", "trainable": true, "dtype": "float32"}, "name": "block_14_add", "inbound_nodes": [[["block_13_project_BN", 0, 0, {}], ["block_14_project_BN", 0, 0, {}]]]}, {"class_name": "Conv2D", "config": {"name": "block_15_expand", "trainable": true, "dtype": "float32", "filters": 960, "kernel_size": [1, 1], "strides": [1, 1], "padding": "same", "data_format": "channels_last", "dilation_rate": [1, 1], "groups": 1, "activation": "linear", "use_bias": false, "kernel_initializer": {"class_name": "GlorotUniform", "config": {"seed": null}}, "bias_initializer": {"class_name": "Zeros", "config": {}}, "kernel_regularizer": null, "bias_regularizer": null, "activity_regularizer": null, "kernel_constraint": null, "bias_constraint": null}, "name": "block_15_expand", "inbound_nodes": [[["block_14_add", 0, 0, {}]]]}, {"class_name": "BatchNormalization", "config": {"name": "block_15_expand_BN", "trainable": true, "dtype": "float32", "axis": [3], "momentum": 0.999, "epsilon": 0.001, "center": true, "scale": true, "beta_initializer": {"class_name": "Zeros", "config": {}}, "gamma_initializer": {"class_name": "Ones", "config": {}}, "moving_mean_initializer": {"class_name": "Zeros", "config": {}}, "moving_variance_initializer": {"class_name": "Ones", "config": {}}, "beta_regularizer": null, "gamma_regularizer": null, "beta_constraint": null, "gamma_constraint": null}, "name": "block_15_expand_BN", "inbound_nodes": [[["block_15_expand", 0, 0, {}]]]}, {"class_name": "ReLU", "config": {"name": "block_15_expand_relu", "trainable": true, "dtype": "float32", "max_value": 6.0, "negative_slope": 0.0, "threshold": 0.0}, "name": "block_15_expand_relu", "inbound_nodes": [[["block_15_expand_BN", 0, 0, {}]]]}, {"class_name": "DepthwiseConv2D", "config": {"name": "block_15_depthwise", "trainable": true, "dtype": "float32", "kernel_size": [3, 3], "strides": [1, 1], "padding": "same", "data_format": "channels_last", "dilation_rate": [1, 1], "groups": 1, "activation": "linear", "use_bias": false, "bias_initializer": {"class_name": "Zeros", "config": {}}, "bias_regularizer": null, "activity_regularizer": null, "bias_constraint": null, "depth_multiplier": 1, "depthwise_initializer": {"class_name": "GlorotUniform", "config": {"seed": null}}, "depthwise_regularizer": null, "depthwise_constraint": null}, "name": "block_15_depthwise", "inbound_nodes": [[["block_15_expand_relu", 0, 0, {}]]]}, {"class_name": "BatchNormalization", "config": {"name": "block_15_depthwise_BN", "trainable": true, "dtype": "float32", "axis": [3], "momentum": 0.999, "epsilon": 0.001, "center": true, "scale": true, "beta_initializer": {"class_name": "Zeros", "config": {}}, "gamma_initializer": {"class_name": "Ones", "config": {}}, "moving_mean_initializer": {"class_name": "Zeros", "config": {}}, "moving_variance_initializer": {"class_name": "Ones", "config": {}}, "beta_regularizer": null, "gamma_regularizer": null, "beta_constraint": null, "gamma_constraint": null}, "name": "block_15_depthwise_BN", "inbound_nodes": [[["block_15_depthwise", 0, 0, {}]]]}, {"class_name": "ReLU", "config": {"name": "block_15_depthwise_relu", "trainable": true, "dtype": "float32", "max_value": 6.0, "negative_slope": 0.0, "threshold": 0.0}, "name": "block_15_depthwise_relu", "inbound_nodes": [[["block_15_depthwise_BN", 0, 0, {}]]]}, {"class_name": "Conv2D", "config": {"name": "block_15_project", "trainable": true, "dtype": "float32", "filters": 160, "kernel_size": [1, 1], "strides": [1, 1], "padding": "same", "data_format": "channels_last", "dilation_rate": [1, 1], "groups": 1, "activation": "linear", "use_bias": false, "kernel_initializer": {"class_name": "GlorotUniform", "config": {"seed": null}}, "bias_initializer": {"class_name": "Zeros", "config": {}}, "kernel_regularizer": null, "bias_regularizer": null, "activity_regularizer": null, "kernel_constraint": null, "bias_constraint": null}, "name": "block_15_project", "inbound_nodes": [[["block_15_depthwise_relu", 0, 0, {}]]]}, {"class_name": "BatchNormalization", "config": {"name": "block_15_project_BN", "trainable": true, "dtype": "float32", "axis": [3], "momentum": 0.999, "epsilon": 0.001, "center": true, "scale": true, "beta_initializer": {"class_name": "Zeros", "config": {}}, "gamma_initializer": {"class_name": "Ones", "config": {}}, "moving_mean_initializer": {"class_name": "Zeros", "config": {}}, "moving_variance_initializer": {"class_name": "Ones", "config": {}}, "beta_regularizer": null, "gamma_regularizer": null, "beta_constraint": null, "gamma_constraint": null}, "name": "block_15_project_BN", "inbound_nodes": [[["block_15_project", 0, 0, {}]]]}, {"class_name": "Add", "config": {"name": "block_15_add", "trainable": true, "dtype": "float32"}, "name": "block_15_add", "inbound_nodes": [[["block_14_add", 0, 0, {}], ["block_15_project_BN", 0, 0, {}]]]}, {"class_name": "Conv2D", "config": {"name": "block_16_expand", "trainable": true, "dtype": "float32", "filters": 960, "kernel_size": [1, 1], "strides": [1, 1], "padding": "same", "data_format": "channels_last", "dilation_rate": [1, 1], "groups": 1, "activation": "linear", "use_bias": false, "kernel_initializer": {"class_name": "GlorotUniform", "config": {"seed": null}}, "bias_initializer": {"class_name": "Zeros", "config": {}}, "kernel_regularizer": null, "bias_regularizer": null, "activity_regularizer": null, "kernel_constraint": null, "bias_constraint": null}, "name": "block_16_expand", "inbound_nodes": [[["block_15_add", 0, 0, {}]]]}, {"class_name": "BatchNormalization", "config": {"name": "block_16_expand_BN", "trainable": true, "dtype": "float32", "axis": [3], "momentum": 0.999, "epsilon": 0.001, "center": true, "scale": true, "beta_initializer": {"class_name": "Zeros", "config": {}}, "gamma_initializer": {"class_name": "Ones", "config": {}}, "moving_mean_initializer": {"class_name": "Zeros", "config": {}}, "moving_variance_initializer": {"class_name": "Ones", "config": {}}, "beta_regularizer": null, "gamma_regularizer": null, "beta_constraint": null, "gamma_constraint": null}, "name": "block_16_expand_BN", "inbound_nodes": [[["block_16_expand", 0, 0, {}]]]}, {"class_name": "ReLU", "config": {"name": "block_16_expand_relu", "trainable": true, "dtype": "float32", "max_value": 6.0, "negative_slope": 0.0, "threshold": 0.0}, "name": "block_16_expand_relu", "inbound_nodes": [[["block_16_expand_BN", 0, 0, {}]]]}, {"class_name": "DepthwiseConv2D", "config": {"name": "block_16_depthwise", "trainable": true, "dtype": "float32", "kernel_size": [3, 3], "strides": [1, 1], "padding": "same", "data_format": "channels_last", "dilation_rate": [1, 1], "groups": 1, "activation": "linear", "use_bias": false, "bias_initializer": {"class_name": "Zeros", "config": {}}, "bias_regularizer": null, "activity_regularizer": null, "bias_constraint": null, "depth_multiplier": 1, "depthwise_initializer": {"class_name": "GlorotUniform", "config": {"seed": null}}, "depthwise_regularizer": null, "depthwise_constraint": null}, "name": "block_16_depthwise", "inbound_nodes": [[["block_16_expand_relu", 0, 0, {}]]]}, {"class_name": "BatchNormalization", "config": {"name": "block_16_depthwise_BN", "trainable": true, "dtype": "float32", "axis": [3], "momentum": 0.999, "epsilon": 0.001, "center": true, "scale": true, "beta_initializer": {"class_name": "Zeros", "config": {}}, "gamma_initializer": {"class_name": "Ones", "config": {}}, "moving_mean_initializer": {"class_name": "Zeros", "config": {}}, "moving_variance_initializer": {"class_name": "Ones", "config": {}}, "beta_regularizer": null, "gamma_regularizer": null, "beta_constraint": null, "gamma_constraint": null}, "name": "block_16_depthwise_BN", "inbound_nodes": [[["block_16_depthwise", 0, 0, {}]]]}, {"class_name": "ReLU", "config": {"name": "block_16_depthwise_relu", "trainable": true, "dtype": "float32", "max_value": 6.0, "negative_slope": 0.0, "threshold": 0.0}, "name": "block_16_depthwise_relu", "inbound_nodes": [[["block_16_depthwise_BN", 0, 0, {}]]]}, {"class_name": "Conv2D", "config": {"name": "block_16_project", "trainable": true, "dtype": "float32", "filters": 320, "kernel_size": [1, 1], "strides": [1, 1], "padding": "same", "data_format": "channels_last", "dilation_rate": [1, 1], "groups": 1, "activation": "linear", "use_bias": false, "kernel_initializer": {"class_name": "GlorotUniform", "config": {"seed": null}}, "bias_initializer": {"class_name": "Zeros", "config": {}}, "kernel_regularizer": null, "bias_regularizer": null, "activity_regularizer": null, "kernel_constraint": null, "bias_constraint": null}, "name": "block_16_project", "inbound_nodes": [[["block_16_depthwise_relu", 0, 0, {}]]]}], "input_layers": [["input_13", 0, 0]], "output_layers": [["block_1_expand_relu", 0, 0], ["block_3_expand_relu", 0, 0], ["block_6_expand_relu", 0, 0], ["block_13_expand_relu", 0, 0], ["block_16_project", 0, 0]]}, "name": "model_4", "inbound_nodes": [[["input_14", 0, 0, {}]]]}, {"class_name": "Conv2DTranspose", "config": {"name": "conv2d_transpose_15", "trainable": true, "dtype": "float32", "filters": 256, "kernel_size": [2, 2], "strides": [2, 2], "padding": "valid", "data_format": "channels_last", "dilation_rate": [1, 1], "groups": 1, "activation": "linear", "use_bias": true, "kernel_initializer": {"class_name": "GlorotUniform", "config": {"seed": null}}, "bias_initializer": {"class_name": "Zeros", "config": {}}, "kernel_regularizer": null, "bias_regularizer": null, "activity_regularizer": null, "kernel_constraint": null, "bias_constraint": null, "output_padding": null}, "name": "conv2d_transpose_15", "inbound_nodes": [[["model_4", 1, 4, {}]]]}, {"class_name": "Concatenate", "config": {"name": "concatenate_12", "trainable": true, "dtype": "float32", "axis": -1}, "name": "concatenate_12", "inbound_nodes": [[["model_4", 1, 3, {}], ["conv2d_transpose_15", 0, 0, {}]]]}, {"class_name": "Conv2D", "config": {"name": "conv2d_34", "trainable": true, "dtype": "float32", "filters": 256, "kernel_size": [3, 3], "strides": [1, 1], "padding": "same", "data_format": "channels_last", "dilation_rate": [1, 1], "groups": 1, "activation": "linear", "use_bias": true, "kernel_initializer": {"class_name": "GlorotUniform", "config": {"seed": null}}, "bias_initializer": {"class_name": "Zeros", "config": {}}, "kernel_regularizer": null, "bias_regularizer": null, "activity_regularizer": null, "kernel_constraint": null, "bias_constraint": null}, "name": "conv2d_34", "inbound_nodes": [[["concatenate_12", 0, 0, {}]]]}, {"class_name": "BatchNormalization", "config": {"name": "batch_normalization_15", "trainable": true, "dtype": "float32", "axis": [3], "momentum": 0.99, "epsilon": 0.001, "center": true, "scale": true, "beta_initializer": {"class_name": "Zeros", "config": {}}, "gamma_initializer": {"class_name": "Ones", "config": {}}, "moving_mean_initializer": {"class_name": "Zeros", "config": {}}, "moving_variance_initializer": {"class_name": "Ones", "config": {}}, "beta_regularizer": null, "gamma_regularizer": null, "beta_constraint": null, "gamma_constraint": null}, "name": "batch_normalization_15", "inbound_nodes": [[["conv2d_34", 0, 0, {}]]]}, {"class_name": "Conv2D", "config": {"name": "conv2d_35", "trainable": true, "dtype": "float32", "filters": 256, "kernel_size": [3, 3], "strides": [1, 1], "padding": "same", "data_format": "channels_last", "dilation_rate": [1, 1], "groups": 1, "activation": "relu", "use_bias": true, "kernel_initializer": {"class_name": "GlorotUniform", "config": {"seed": null}}, "bias_initializer": {"class_name": "Zeros", "config": {}}, "kernel_regularizer": null, "bias_regularizer": null, "activity_regularizer": null, "kernel_constraint": null, "bias_constraint": null}, "name": "conv2d_35", "inbound_nodes": [[["batch_normalization_15", 0, 0, {}]]]}, {"class_name": "Conv2DTranspose", "config": {"name": "conv2d_transpose_16", "trainable": true, "dtype": "float32", "filters": 128, "kernel_size": [2, 2], "strides": [2, 2], "padding": "valid", "data_format": "channels_last", "dilation_rate": [1, 1], "groups": 1, "activation": "linear", "use_bias": true, "kernel_initializer": {"class_name": "GlorotUniform", "config": {"seed": null}}, "bias_initializer": {"class_name": "Zeros", "config": {}}, "kernel_regularizer": null, "bias_regularizer": null, "activity_regularizer": null, "kernel_constraint": null, "bias_constraint": null, "output_padding": null}, "name": "conv2d_transpose_16", "inbound_nodes": [[["conv2d_35", 0, 0, {}]]]}, {"class_name": "Concatenate", "config": {"name": "concatenate_13", "trainable": true, "dtype": "float32", "axis": -1}, "name": "concatenate_13", "inbound_nodes": [[["model_4", 1, 2, {}], ["conv2d_transpose_16", 0, 0, {}]]]}, {"class_name": "Conv2D", "config": {"name": "conv2d_36", "trainable": true, "dtype": "float32", "filters": 128, "kernel_size": [3, 3], "strides": [1, 1], "padding": "same", "data_format": "channels_last", "dilation_rate": [1, 1], "groups": 1, "activation": "linear", "use_bias": true, "kernel_initializer": {"class_name": "GlorotUniform", "config": {"seed": null}}, "bias_initializer": {"class_name": "Zeros", "config": {}}, "kernel_regularizer": null, "bias_regularizer": null, "activity_regularizer": null, "kernel_constraint": null, "bias_constraint": null}, "name": "conv2d_36", "inbound_nodes": [[["concatenate_13", 0, 0, {}]]]}, {"class_name": "BatchNormalization", "config": {"name": "batch_normalization_16", "trainable": true, "dtype": "float32", "axis": [3], "momentum": 0.99, "epsilon": 0.001, "center": true, "scale": true, "beta_initializer": {"class_name": "Zeros", "config": {}}, "gamma_initializer": {"class_name": "Ones", "config": {}}, "moving_mean_initializer": {"class_name": "Zeros", "config": {}}, "moving_variance_initializer": {"class_name": "Ones", "config": {}}, "beta_regularizer": null, "gamma_regularizer": null, "beta_constraint": null, "gamma_constraint": null}, "name": "batch_normalization_16", "inbound_nodes": [[["conv2d_36", 0, 0, {}]]]}, {"class_name": "Conv2D", "config": {"name": "conv2d_37", "trainable": true, "dtype": "float32", "filters": 128, "kernel_size": [3, 3], "strides": [1, 1], "padding": "same", "data_format": "channels_last", "dilation_rate": [1, 1], "groups": 1, "activation": "relu", "use_bias": true, "kernel_initializer": {"class_name": "GlorotUniform", "config": {"seed": null}}, "bias_initializer": {"class_name": "Zeros", "config": {}}, "kernel_regularizer": null, "bias_regularizer": null, "activity_regularizer": null, "kernel_constraint": null, "bias_constraint": null}, "name": "conv2d_37", "inbound_nodes": [[["batch_normalization_16", 0, 0, {}]]]}, {"class_name": "Conv2DTranspose", "config": {"name": "conv2d_transpose_17", "trainable": true, "dtype": "float32", "filters": 64, "kernel_size": [2, 2], "strides": [2, 2], "padding": "valid", "data_format": "channels_last", "dilation_rate": [1, 1], "groups": 1, "activation": "linear", "use_bias": true, "kernel_initializer": {"class_name": "GlorotUniform", "config": {"seed": null}}, "bias_initializer": {"class_name": "Zeros", "config": {}}, "kernel_regularizer": null, "bias_regularizer": null, "activity_regularizer": null, "kernel_constraint": null, "bias_constraint": null, "output_padding": null}, "name": "conv2d_transpose_17", "inbound_nodes": [[["conv2d_37", 0, 0, {}]]]}, {"class_name": "Concatenate", "config": {"name": "concatenate_14", "trainable": true, "dtype": "float32", "axis": -1}, "name": "concatenate_14", "inbound_nodes": [[["model_4", 1, 1, {}], ["conv2d_transpose_17", 0, 0, {}]]]}, {"class_name": "Conv2D", "config": {"name": "conv2d_38", "trainable": true, "dtype": "float32", "filters": 64, "kernel_size": [3, 3], "strides": [1, 1], "padding": "same", "data_format": "channels_last", "dilation_rate": [1, 1], "groups": 1, "activation": "linear", "use_bias": true, "kernel_initializer": {"class_name": "GlorotUniform", "config": {"seed": null}}, "bias_initializer": {"class_name": "Zeros", "config": {}}, "kernel_regularizer": null, "bias_regularizer": null, "activity_regularizer": null, "kernel_constraint": null, "bias_constraint": null}, "name": "conv2d_38", "inbound_nodes": [[["concatenate_14", 0, 0, {}]]]}, {"class_name": "BatchNormalization", "config": {"name": "batch_normalization_17", "trainable": true, "dtype": "float32", "axis": [3], "momentum": 0.99, "epsilon": 0.001, "center": true, "scale": true, "beta_initializer": {"class_name": "Zeros", "config": {}}, "gamma_initializer": {"class_name": "Ones", "config": {}}, "moving_mean_initializer": {"class_name": "Zeros", "config": {}}, "moving_variance_initializer": {"class_name": "Ones", "config": {}}, "beta_regularizer": null, "gamma_regularizer": null, "beta_constraint": null, "gamma_constraint": null}, "name": "batch_normalization_17", "inbound_nodes": [[["conv2d_38", 0, 0, {}]]]}, {"class_name": "Conv2D", "config": {"name": "conv2d_39", "trainable": true, "dtype": "float32", "filters": 64, "kernel_size": [3, 3], "strides": [1, 1], "padding": "same", "data_format": "channels_last", "dilation_rate": [1, 1], "groups": 1, "activation": "relu", "use_bias": true, "kernel_initializer": {"class_name": "GlorotUniform", "config": {"seed": null}}, "bias_initializer": {"class_name": "Zeros", "config": {}}, "kernel_regularizer": null, "bias_regularizer": null, "activity_regularizer": null, "kernel_constraint": null, "bias_constraint": null}, "name": "conv2d_39", "inbound_nodes": [[["batch_normalization_17", 0, 0, {}]]]}, {"class_name": "Conv2DTranspose", "config": {"name": "conv2d_transpose_18", "trainable": true, "dtype": "float32", "filters": 32, "kernel_size": [2, 2], "strides": [2, 2], "padding": "valid", "data_format": "channels_last", "dilation_rate": [1, 1], "groups": 1, "activation": "linear", "use_bias": true, "kernel_initializer": {"class_name": "GlorotUniform", "config": {"seed": null}}, "bias_initializer": {"class_name": "Zeros", "config": {}}, "kernel_regularizer": null, "bias_regularizer": null, "activity_regularizer": null, "kernel_constraint": null, "bias_constraint": null, "output_padding": null}, "name": "conv2d_transpose_18", "inbound_nodes": [[["conv2d_39", 0, 0, {}]]]}, {"class_name": "Concatenate", "config": {"name": "concatenate_15", "trainable": true, "dtype": "float32", "axis": -1}, "name": "concatenate_15", "inbound_nodes": [[["model_4", 1, 0, {}], ["conv2d_transpose_18", 0, 0, {}]]]}, {"class_name": "Conv2D", "config": {"name": "conv2d_40", "trainable": true, "dtype": "float32", "filters": 32, "kernel_size": [3, 3], "strides": [1, 1], "padding": "same", "data_format": "channels_last", "dilation_rate": [1, 1], "groups": 1, "activation": "linear", "use_bias": true, "kernel_initializer": {"class_name": "GlorotUniform", "config": {"seed": null}}, "bias_initializer": {"class_name": "Zeros", "config": {}}, "kernel_regularizer": null, "bias_regularizer": null, "activity_regularizer": null, "kernel_constraint": null, "bias_constraint": null}, "name": "conv2d_40", "inbound_nodes": [[["concatenate_15", 0, 0, {}]]]}, {"class_name": "BatchNormalization", "config": {"name": "batch_normalization_18", "trainable": true, "dtype": "float32", "axis": [3], "momentum": 0.99, "epsilon": 0.001, "center": true, "scale": true, "beta_initializer": {"class_name": "Zeros", "config": {}}, "gamma_initializer": {"class_name": "Ones", "config": {}}, "moving_mean_initializer": {"class_name": "Zeros", "config": {}}, "moving_variance_initializer": {"class_name": "Ones", "config": {}}, "beta_regularizer": null, "gamma_regularizer": null, "beta_constraint": null, "gamma_constraint": null}, "name": "batch_normalization_18", "inbound_nodes": [[["conv2d_40", 0, 0, {}]]]}, {"class_name": "Conv2D", "config": {"name": "conv2d_41", "trainable": true, "dtype": "float32", "filters": 32, "kernel_size": [3, 3], "strides": [1, 1], "padding": "same", "data_format": "channels_last", "dilation_rate": [1, 1], "groups": 1, "activation": "relu", "use_bias": true, "kernel_initializer": {"class_name": "GlorotUniform", "config": {"seed": null}}, "bias_initializer": {"class_name": "Zeros", "config": {}}, "kernel_regularizer": null, "bias_regularizer": null, "activity_regularizer": null, "kernel_constraint": null, "bias_constraint": null}, "name": "conv2d_41", "inbound_nodes": [[["batch_normalization_18", 0, 0, {}]]]}, {"class_name": "Conv2DTranspose", "config": {"name": "conv2d_transpose_19", "trainable": true, "dtype": "float32", "filters": 16, "kernel_size": [3, 3], "strides": [2, 2], "padding": "same", "data_format": "channels_last", "dilation_rate": [1, 1], "groups": 1, "activation": "linear", "use_bias": true, "kernel_initializer": {"class_name": "GlorotUniform", "config": {"seed": null}}, "bias_initializer": {"class_name": "Zeros", "config": {}}, "kernel_regularizer": null, "bias_regularizer": null, "activity_regularizer": null, "kernel_constraint": null, "bias_constraint": null, "output_padding": null}, "name": "conv2d_transpose_19", "inbound_nodes": [[["conv2d_41", 0, 0, {}]]]}, {"class_name": "Conv2D", "config": {"name": "conv2d_42", "trainable": true, "dtype": "float32", "filters": 16, "kernel_size": [3, 3], "strides": [1, 1], "padding": "same", "data_format": "channels_last", "dilation_rate": [1, 1], "groups": 1, "activation": "linear", "use_bias": true, "kernel_initializer": {"class_name": "GlorotUniform", "config": {"seed": null}}, "bias_initializer": {"class_name": "Zeros", "config": {}}, "kernel_regularizer": null, "bias_regularizer": null, "activity_regularizer": null, "kernel_constraint": null, "bias_constraint": null}, "name": "conv2d_42", "inbound_nodes": [[["conv2d_transpose_19", 0, 0, {}]]]}, {"class_name": "BatchNormalization", "config": {"name": "batch_normalization_19", "trainable": true, "dtype": "float32", "axis": [3], "momentum": 0.99, "epsilon": 0.001, "center": true, "scale": true, "beta_initializer": {"class_name": "Zeros", "config": {}}, "gamma_initializer": {"class_name": "Ones", "config": {}}, "moving_mean_initializer": {"class_name": "Zeros", "config": {}}, "moving_variance_initializer": {"class_name": "Ones", "config": {}}, "beta_regularizer": null, "gamma_regularizer": null, "beta_constraint": null, "gamma_constraint": null}, "name": "batch_normalization_19", "inbound_nodes": [[["conv2d_42", 0, 0, {}]]]}, {"class_name": "Conv2D", "config": {"name": "conv2d_43", "trainable": true, "dtype": "float32", "filters": 2, "kernel_size": [1, 1], "strides": [1, 1], "padding": "same", "data_format": "channels_last", "dilation_rate": [1, 1], "groups": 1, "activation": "sigmoid", "use_bias": true, "kernel_initializer": {"class_name": "GlorotUniform", "config": {"seed": null}}, "bias_initializer": {"class_name": "Zeros", "config": {}}, "kernel_regularizer": null, "bias_regularizer": null, "activity_regularizer": null, "kernel_constraint": null, "bias_constraint": null}, "name": "conv2d_43", "inbound_nodes": [[["batch_normalization_19", 0, 0, {}]]]}], "input_layers": [["input_14", 0, 0]], "output_layers": [["conv2d_43", 0, 0]]}, "keras_version": "2.4.0", "backend": "tensorflow"}